{"format": "layers-model", "generatedBy": "keras v2.1.5", "convertedBy": "TensorFlow.js Converter v3.18.0", "modelTopology": {"keras_version": "2.1.5", "backend": "tensorflow", "model_config": {"class_name": "Model", "config": {"name": "model_2", "layers": [{"name": "input_1", "class_name": "InputLayer", "config": {"batch_input_shape": [null, null, null, 3], "dtype": "float32", "sparse": false, "name": "input_1"}, "inbound_nodes": []}, {"name": "backbone.stem.0.conv", "class_name": "Conv2D", "config": {"name": "backbone.stem.0.conv", "trainable": true, "filters": 32, "kernel_size": [3, 3], "strides": [1, 1], "padding": "same", "data_format": "channels_last", "dilation_rate": [1, 1], "activation": "linear", "use_bias": false, "kernel_initializer": {"class_name": "RandomNormal", "config": {"mean": 0.0, "stddev": 0.02, "seed": null}}, "bias_initializer": {"class_name": "Zeros", "config": {}}, "kernel_regularizer": null, "bias_regularizer": null, "activity_regularizer": null, "kernel_constraint": null, "bias_constraint": null}, "inbound_nodes": [[["input_1", 0, 0, {}]]]}, {"name": "backbone.stem.0.bn", "class_name": "BatchNormalization", "config": {"name": "backbone.stem.0.bn", "trainable": true, "axis": -1, "momentum": 0.97, "epsilon": 0.001, "center": true, "scale": true, "beta_initializer": {"class_name": "Zeros", "config": {}}, "gamma_initializer": {"class_name": "Ones", "config": {}}, "moving_mean_initializer": {"class_name": "Zeros", "config": {}}, "moving_variance_initializer": {"class_name": "Ones", "config": {}}, "beta_regularizer": null, "gamma_regularizer": null, "beta_constraint": null, "gamma_constraint": null}, "inbound_nodes": [[["backbone.stem.0.conv", 0, 0, {}]]]}, {"name": "si_lu_1", "class_name": "SiLU", "config": {"name": "si_lu_1", "trainable": true}, "inbound_nodes": [[["backbone.stem.0.bn", 0, 0, {}]]]}, {"name": "zero_padding2d_1", "class_name": "ZeroPadding2D", "config": {"name": "zero_padding2d_1", "trainable": true, "padding": [[1, 1], [1, 1]], "data_format": "channels_last"}, "inbound_nodes": [[["si_lu_1", 0, 0, {}]]]}, {"name": "backbone.stem.1.conv", "class_name": "Conv2D", "config": {"name": "backbone.stem.1.conv", "trainable": true, "filters": 64, "kernel_size": [3, 3], "strides": [2, 2], "padding": "valid", "data_format": "channels_last", "dilation_rate": [1, 1], "activation": "linear", "use_bias": false, "kernel_initializer": {"class_name": "RandomNormal", "config": {"mean": 0.0, "stddev": 0.02, "seed": null}}, "bias_initializer": {"class_name": "Zeros", "config": {}}, "kernel_regularizer": null, "bias_regularizer": null, "activity_regularizer": null, "kernel_constraint": null, "bias_constraint": null}, "inbound_nodes": [[["zero_padding2d_1", 0, 0, {}]]]}, {"name": "backbone.stem.1.bn", "class_name": "BatchNormalization", "config": {"name": "backbone.stem.1.bn", "trainable": true, "axis": -1, "momentum": 0.97, "epsilon": 0.001, "center": true, "scale": true, "beta_initializer": {"class_name": "Zeros", "config": {}}, "gamma_initializer": {"class_name": "Ones", "config": {}}, "moving_mean_initializer": {"class_name": "Zeros", "config": {}}, "moving_variance_initializer": {"class_name": "Ones", "config": {}}, "beta_regularizer": null, "gamma_regularizer": null, "beta_constraint": null, "gamma_constraint": null}, "inbound_nodes": [[["backbone.stem.1.conv", 0, 0, {}]]]}, {"name": "si_lu_2", "class_name": "SiLU", "config": {"name": "si_lu_2", "trainable": true}, "inbound_nodes": [[["backbone.stem.1.bn", 0, 0, {}]]]}, {"name": "backbone.stem.2.conv", "class_name": "Conv2D", "config": {"name": "backbone.stem.2.conv", "trainable": true, "filters": 64, "kernel_size": [3, 3], "strides": [1, 1], "padding": "same", "data_format": "channels_last", "dilation_rate": [1, 1], "activation": "linear", "use_bias": false, "kernel_initializer": {"class_name": "RandomNormal", "config": {"mean": 0.0, "stddev": 0.02, "seed": null}}, "bias_initializer": {"class_name": "Zeros", "config": {}}, "kernel_regularizer": null, "bias_regularizer": null, "activity_regularizer": null, "kernel_constraint": null, "bias_constraint": null}, "inbound_nodes": [[["si_lu_2", 0, 0, {}]]]}, {"name": "backbone.stem.2.bn", "class_name": "BatchNormalization", "config": {"name": "backbone.stem.2.bn", "trainable": true, "axis": -1, "momentum": 0.97, "epsilon": 0.001, "center": true, "scale": true, "beta_initializer": {"class_name": "Zeros", "config": {}}, "gamma_initializer": {"class_name": "Ones", "config": {}}, "moving_mean_initializer": {"class_name": "Zeros", "config": {}}, "moving_variance_initializer": {"class_name": "Ones", "config": {}}, "beta_regularizer": null, "gamma_regularizer": null, "beta_constraint": null, "gamma_constraint": null}, "inbound_nodes": [[["backbone.stem.2.conv", 0, 0, {}]]]}, {"name": "si_lu_3", "class_name": "SiLU", "config": {"name": "si_lu_3", "trainable": true}, "inbound_nodes": [[["backbone.stem.2.bn", 0, 0, {}]]]}, {"name": "zero_padding2d_2", "class_name": "ZeroPadding2D", "config": {"name": "zero_padding2d_2", "trainable": true, "padding": [[1, 1], [1, 1]], "data_format": "channels_last"}, "inbound_nodes": [[["si_lu_3", 0, 0, {}]]]}, {"name": "backbone.dark2.0.conv", "class_name": "Conv2D", "config": {"name": "backbone.dark2.0.conv", "trainable": true, "filters": 128, "kernel_size": [3, 3], "strides": [2, 2], "padding": "valid", "data_format": "channels_last", "dilation_rate": [1, 1], "activation": "linear", "use_bias": false, "kernel_initializer": {"class_name": "RandomNormal", "config": {"mean": 0.0, "stddev": 0.02, "seed": null}}, "bias_initializer": {"class_name": "Zeros", "config": {}}, "kernel_regularizer": null, "bias_regularizer": null, "activity_regularizer": null, "kernel_constraint": null, "bias_constraint": null}, "inbound_nodes": [[["zero_padding2d_2", 0, 0, {}]]]}, {"name": "backbone.dark2.0.bn", "class_name": "BatchNormalization", "config": {"name": "backbone.dark2.0.bn", "trainable": true, "axis": -1, "momentum": 0.97, "epsilon": 0.001, "center": true, "scale": true, "beta_initializer": {"class_name": "Zeros", "config": {}}, "gamma_initializer": {"class_name": "Ones", "config": {}}, "moving_mean_initializer": {"class_name": "Zeros", "config": {}}, "moving_variance_initializer": {"class_name": "Ones", "config": {}}, "beta_regularizer": null, "gamma_regularizer": null, "beta_constraint": null, "gamma_constraint": null}, "inbound_nodes": [[["backbone.dark2.0.conv", 0, 0, {}]]]}, {"name": "si_lu_4", "class_name": "SiLU", "config": {"name": "si_lu_4", "trainable": true}, "inbound_nodes": [[["backbone.dark2.0.bn", 0, 0, {}]]]}, {"name": "backbone.dark2.1.cv2.conv", "class_name": "Conv2D", "config": {"name": "backbone.dark2.1.cv2.conv", "trainable": true, "filters": 64, "kernel_size": [1, 1], "strides": [1, 1], "padding": "same", "data_format": "channels_last", "dilation_rate": [1, 1], "activation": "linear", "use_bias": false, "kernel_initializer": {"class_name": "RandomNormal", "config": {"mean": 0.0, "stddev": 0.02, "seed": null}}, "bias_initializer": {"class_name": "Zeros", "config": {}}, "kernel_regularizer": null, "bias_regularizer": null, "activity_regularizer": null, "kernel_constraint": null, "bias_constraint": null}, "inbound_nodes": [[["si_lu_4", 0, 0, {}]]]}, {"name": "backbone.dark2.1.cv2.bn", "class_name": "BatchNormalization", "config": {"name": "backbone.dark2.1.cv2.bn", "trainable": true, "axis": -1, "momentum": 0.97, "epsilon": 0.001, "center": true, "scale": true, "beta_initializer": {"class_name": "Zeros", "config": {}}, "gamma_initializer": {"class_name": "Ones", "config": {}}, "moving_mean_initializer": {"class_name": "Zeros", "config": {}}, "moving_variance_initializer": {"class_name": "Ones", "config": {}}, "beta_regularizer": null, "gamma_regularizer": null, "beta_constraint": null, "gamma_constraint": null}, "inbound_nodes": [[["backbone.dark2.1.cv2.conv", 0, 0, {}]]]}, {"name": "si_lu_6", "class_name": "SiLU", "config": {"name": "si_lu_6", "trainable": true}, "inbound_nodes": [[["backbone.dark2.1.cv2.bn", 0, 0, {}]]]}, {"name": "backbone.dark2.1.cv3.0.conv", "class_name": "Conv2D", "config": {"name": "backbone.dark2.1.cv3.0.conv", "trainable": true, "filters": 64, "kernel_size": [3, 3], "strides": [1, 1], "padding": "same", "data_format": "channels_last", "dilation_rate": [1, 1], "activation": "linear", "use_bias": false, "kernel_initializer": {"class_name": "RandomNormal", "config": {"mean": 0.0, "stddev": 0.02, "seed": null}}, "bias_initializer": {"class_name": "Zeros", "config": {}}, "kernel_regularizer": null, "bias_regularizer": null, "activity_regularizer": null, "kernel_constraint": null, "bias_constraint": null}, "inbound_nodes": [[["si_lu_6", 0, 0, {}]]]}, {"name": "backbone.dark2.1.cv3.0.bn", "class_name": "BatchNormalization", "config": {"name": "backbone.dark2.1.cv3.0.bn", "trainable": true, "axis": -1, "momentum": 0.97, "epsilon": 0.001, "center": true, "scale": true, "beta_initializer": {"class_name": "Zeros", "config": {}}, "gamma_initializer": {"class_name": "Ones", "config": {}}, "moving_mean_initializer": {"class_name": "Zeros", "config": {}}, "moving_variance_initializer": {"class_name": "Ones", "config": {}}, "beta_regularizer": null, "gamma_regularizer": null, "beta_constraint": null, "gamma_constraint": null}, "inbound_nodes": [[["backbone.dark2.1.cv3.0.conv", 0, 0, {}]]]}, {"name": "si_lu_7", "class_name": "SiLU", "config": {"name": "si_lu_7", "trainable": true}, "inbound_nodes": [[["backbone.dark2.1.cv3.0.bn", 0, 0, {}]]]}, {"name": "backbone.dark2.1.cv3.1.conv", "class_name": "Conv2D", "config": {"name": "backbone.dark2.1.cv3.1.conv", "trainable": true, "filters": 64, "kernel_size": [3, 3], "strides": [1, 1], "padding": "same", "data_format": "channels_last", "dilation_rate": [1, 1], "activation": "linear", "use_bias": false, "kernel_initializer": {"class_name": "RandomNormal", "config": {"mean": 0.0, "stddev": 0.02, "seed": null}}, "bias_initializer": {"class_name": "Zeros", "config": {}}, "kernel_regularizer": null, "bias_regularizer": null, "activity_regularizer": null, "kernel_constraint": null, "bias_constraint": null}, "inbound_nodes": [[["si_lu_7", 0, 0, {}]]]}, {"name": "backbone.dark2.1.cv3.1.bn", "class_name": "BatchNormalization", "config": {"name": "backbone.dark2.1.cv3.1.bn", "trainable": true, "axis": -1, "momentum": 0.97, "epsilon": 0.001, "center": true, "scale": true, "beta_initializer": {"class_name": "Zeros", "config": {}}, "gamma_initializer": {"class_name": "Ones", "config": {}}, "moving_mean_initializer": {"class_name": "Zeros", "config": {}}, "moving_variance_initializer": {"class_name": "Ones", "config": {}}, "beta_regularizer": null, "gamma_regularizer": null, "beta_constraint": null, "gamma_constraint": null}, "inbound_nodes": [[["backbone.dark2.1.cv3.1.conv", 0, 0, {}]]]}, {"name": "si_lu_8", "class_name": "SiLU", "config": {"name": "si_lu_8", "trainable": true}, "inbound_nodes": [[["backbone.dark2.1.cv3.1.bn", 0, 0, {}]]]}, {"name": "backbone.dark2.1.cv3.2.conv", "class_name": "Conv2D", "config": {"name": "backbone.dark2.1.cv3.2.conv", "trainable": true, "filters": 64, "kernel_size": [3, 3], "strides": [1, 1], "padding": "same", "data_format": "channels_last", "dilation_rate": [1, 1], "activation": "linear", "use_bias": false, "kernel_initializer": {"class_name": "RandomNormal", "config": {"mean": 0.0, "stddev": 0.02, "seed": null}}, "bias_initializer": {"class_name": "Zeros", "config": {}}, "kernel_regularizer": null, "bias_regularizer": null, "activity_regularizer": null, "kernel_constraint": null, "bias_constraint": null}, "inbound_nodes": [[["si_lu_8", 0, 0, {}]]]}, {"name": "backbone.dark2.1.cv3.2.bn", "class_name": "BatchNormalization", "config": {"name": "backbone.dark2.1.cv3.2.bn", "trainable": true, "axis": -1, "momentum": 0.97, "epsilon": 0.001, "center": true, "scale": true, "beta_initializer": {"class_name": "Zeros", "config": {}}, "gamma_initializer": {"class_name": "Ones", "config": {}}, "moving_mean_initializer": {"class_name": "Zeros", "config": {}}, "moving_variance_initializer": {"class_name": "Ones", "config": {}}, "beta_regularizer": null, "gamma_regularizer": null, "beta_constraint": null, "gamma_constraint": null}, "inbound_nodes": [[["backbone.dark2.1.cv3.2.conv", 0, 0, {}]]]}, {"name": "si_lu_9", "class_name": "SiLU", "config": {"name": "si_lu_9", "trainable": true}, "inbound_nodes": [[["backbone.dark2.1.cv3.2.bn", 0, 0, {}]]]}, {"name": "backbone.dark2.1.cv3.3.conv", "class_name": "Conv2D", "config": {"name": "backbone.dark2.1.cv3.3.conv", "trainable": true, "filters": 64, "kernel_size": [3, 3], "strides": [1, 1], "padding": "same", "data_format": "channels_last", "dilation_rate": [1, 1], "activation": "linear", "use_bias": false, "kernel_initializer": {"class_name": "RandomNormal", "config": {"mean": 0.0, "stddev": 0.02, "seed": null}}, "bias_initializer": {"class_name": "Zeros", "config": {}}, "kernel_regularizer": null, "bias_regularizer": null, "activity_regularizer": null, "kernel_constraint": null, "bias_constraint": null}, "inbound_nodes": [[["si_lu_9", 0, 0, {}]]]}, {"name": "backbone.dark2.1.cv1.conv", "class_name": "Conv2D", "config": {"name": "backbone.dark2.1.cv1.conv", "trainable": true, "filters": 64, "kernel_size": [1, 1], "strides": [1, 1], "padding": "same", "data_format": "channels_last", "dilation_rate": [1, 1], "activation": "linear", "use_bias": false, "kernel_initializer": {"class_name": "RandomNormal", "config": {"mean": 0.0, "stddev": 0.02, "seed": null}}, "bias_initializer": {"class_name": "Zeros", "config": {}}, "kernel_regularizer": null, "bias_regularizer": null, "activity_regularizer": null, "kernel_constraint": null, "bias_constraint": null}, "inbound_nodes": [[["si_lu_4", 0, 0, {}]]]}, {"name": "backbone.dark2.1.cv3.3.bn", "class_name": "BatchNormalization", "config": {"name": "backbone.dark2.1.cv3.3.bn", "trainable": true, "axis": -1, "momentum": 0.97, "epsilon": 0.001, "center": true, "scale": true, "beta_initializer": {"class_name": "Zeros", "config": {}}, "gamma_initializer": {"class_name": "Ones", "config": {}}, "moving_mean_initializer": {"class_name": "Zeros", "config": {}}, "moving_variance_initializer": {"class_name": "Ones", "config": {}}, "beta_regularizer": null, "gamma_regularizer": null, "beta_constraint": null, "gamma_constraint": null}, "inbound_nodes": [[["backbone.dark2.1.cv3.3.conv", 0, 0, {}]]]}, {"name": "backbone.dark2.1.cv1.bn", "class_name": "BatchNormalization", "config": {"name": "backbone.dark2.1.cv1.bn", "trainable": true, "axis": -1, "momentum": 0.97, "epsilon": 0.001, "center": true, "scale": true, "beta_initializer": {"class_name": "Zeros", "config": {}}, "gamma_initializer": {"class_name": "Ones", "config": {}}, "moving_mean_initializer": {"class_name": "Zeros", "config": {}}, "moving_variance_initializer": {"class_name": "Ones", "config": {}}, "beta_regularizer": null, "gamma_regularizer": null, "beta_constraint": null, "gamma_constraint": null}, "inbound_nodes": [[["backbone.dark2.1.cv1.conv", 0, 0, {}]]]}, {"name": "si_lu_10", "class_name": "SiLU", "config": {"name": "si_lu_10", "trainable": true}, "inbound_nodes": [[["backbone.dark2.1.cv3.3.bn", 0, 0, {}]]]}, {"name": "si_lu_5", "class_name": "SiLU", "config": {"name": "si_lu_5", "trainable": true}, "inbound_nodes": [[["backbone.dark2.1.cv1.bn", 0, 0, {}]]]}, {"name": "concatenate_1", "class_name": "Concatenate", "config": {"name": "concatenate_1", "trainable": true, "axis": -1}, "inbound_nodes": [[["si_lu_10", 0, 0, {}], ["si_lu_8", 0, 0, {}], ["si_lu_6", 0, 0, {}], ["si_lu_5", 0, 0, {}]]]}, {"name": "backbone.dark2.1.cv4.conv", "class_name": "Conv2D", "config": {"name": "backbone.dark2.1.cv4.conv", "trainable": true, "filters": 256, "kernel_size": [1, 1], "strides": [1, 1], "padding": "same", "data_format": "channels_last", "dilation_rate": [1, 1], "activation": "linear", "use_bias": false, "kernel_initializer": {"class_name": "RandomNormal", "config": {"mean": 0.0, "stddev": 0.02, "seed": null}}, "bias_initializer": {"class_name": "Zeros", "config": {}}, "kernel_regularizer": null, "bias_regularizer": null, "activity_regularizer": null, "kernel_constraint": null, "bias_constraint": null}, "inbound_nodes": [[["concatenate_1", 0, 0, {}]]]}, {"name": "backbone.dark2.1.cv4.bn", "class_name": "BatchNormalization", "config": {"name": "backbone.dark2.1.cv4.bn", "trainable": true, "axis": -1, "momentum": 0.97, "epsilon": 0.001, "center": true, "scale": true, "beta_initializer": {"class_name": "Zeros", "config": {}}, "gamma_initializer": {"class_name": "Ones", "config": {}}, "moving_mean_initializer": {"class_name": "Zeros", "config": {}}, "moving_variance_initializer": {"class_name": "Ones", "config": {}}, "beta_regularizer": null, "gamma_regularizer": null, "beta_constraint": null, "gamma_constraint": null}, "inbound_nodes": [[["backbone.dark2.1.cv4.conv", 0, 0, {}]]]}, {"name": "si_lu_11", "class_name": "SiLU", "config": {"name": "si_lu_11", "trainable": true}, "inbound_nodes": [[["backbone.dark2.1.cv4.bn", 0, 0, {}]]]}, {"name": "backbone.dark3.0.cv2.conv", "class_name": "Conv2D", "config": {"name": "backbone.dark3.0.cv2.conv", "trainable": true, "filters": 128, "kernel_size": [1, 1], "strides": [1, 1], "padding": "same", "data_format": "channels_last", "dilation_rate": [1, 1], "activation": "linear", "use_bias": false, "kernel_initializer": {"class_name": "RandomNormal", "config": {"mean": 0.0, "stddev": 0.02, "seed": null}}, "bias_initializer": {"class_name": "Zeros", "config": {}}, "kernel_regularizer": null, "bias_regularizer": null, "activity_regularizer": null, "kernel_constraint": null, "bias_constraint": null}, "inbound_nodes": [[["si_lu_11", 0, 0, {}]]]}, {"name": "backbone.dark3.0.cv2.bn", "class_name": "BatchNormalization", "config": {"name": "backbone.dark3.0.cv2.bn", "trainable": true, "axis": -1, "momentum": 0.97, "epsilon": 0.001, "center": true, "scale": true, "beta_initializer": {"class_name": "Zeros", "config": {}}, "gamma_initializer": {"class_name": "Ones", "config": {}}, "moving_mean_initializer": {"class_name": "Zeros", "config": {}}, "moving_variance_initializer": {"class_name": "Ones", "config": {}}, "beta_regularizer": null, "gamma_regularizer": null, "beta_constraint": null, "gamma_constraint": null}, "inbound_nodes": [[["backbone.dark3.0.cv2.conv", 0, 0, {}]]]}, {"name": "si_lu_13", "class_name": "SiLU", "config": {"name": "si_lu_13", "trainable": true}, "inbound_nodes": [[["backbone.dark3.0.cv2.bn", 0, 0, {}]]]}, {"name": "zero_padding2d_3", "class_name": "ZeroPadding2D", "config": {"name": "zero_padding2d_3", "trainable": true, "padding": [[1, 1], [1, 1]], "data_format": "channels_last"}, "inbound_nodes": [[["si_lu_13", 0, 0, {}]]]}, {"name": "max_pooling2d_1", "class_name": "MaxPooling2D", "config": {"name": "max_pooling2d_1", "trainable": true, "pool_size": [2, 2], "padding": "valid", "strides": [2, 2], "data_format": "channels_last"}, "inbound_nodes": [[["si_lu_11", 0, 0, {}]]]}, {"name": "backbone.dark3.0.cv3.conv", "class_name": "Conv2D", "config": {"name": "backbone.dark3.0.cv3.conv", "trainable": true, "filters": 128, "kernel_size": [3, 3], "strides": [2, 2], "padding": "valid", "data_format": "channels_last", "dilation_rate": [1, 1], "activation": "linear", "use_bias": false, "kernel_initializer": {"class_name": "RandomNormal", "config": {"mean": 0.0, "stddev": 0.02, "seed": null}}, "bias_initializer": {"class_name": "Zeros", "config": {}}, "kernel_regularizer": null, "bias_regularizer": null, "activity_regularizer": null, "kernel_constraint": null, "bias_constraint": null}, "inbound_nodes": [[["zero_padding2d_3", 0, 0, {}]]]}, {"name": "backbone.dark3.0.cv1.conv", "class_name": "Conv2D", "config": {"name": "backbone.dark3.0.cv1.conv", "trainable": true, "filters": 128, "kernel_size": [1, 1], "strides": [1, 1], "padding": "same", "data_format": "channels_last", "dilation_rate": [1, 1], "activation": "linear", "use_bias": false, "kernel_initializer": {"class_name": "RandomNormal", "config": {"mean": 0.0, "stddev": 0.02, "seed": null}}, "bias_initializer": {"class_name": "Zeros", "config": {}}, "kernel_regularizer": null, "bias_regularizer": null, "activity_regularizer": null, "kernel_constraint": null, "bias_constraint": null}, "inbound_nodes": [[["max_pooling2d_1", 0, 0, {}]]]}, {"name": "backbone.dark3.0.cv3.bn", "class_name": "BatchNormalization", "config": {"name": "backbone.dark3.0.cv3.bn", "trainable": true, "axis": -1, "momentum": 0.97, "epsilon": 0.001, "center": true, "scale": true, "beta_initializer": {"class_name": "Zeros", "config": {}}, "gamma_initializer": {"class_name": "Ones", "config": {}}, "moving_mean_initializer": {"class_name": "Zeros", "config": {}}, "moving_variance_initializer": {"class_name": "Ones", "config": {}}, "beta_regularizer": null, "gamma_regularizer": null, "beta_constraint": null, "gamma_constraint": null}, "inbound_nodes": [[["backbone.dark3.0.cv3.conv", 0, 0, {}]]]}, {"name": "backbone.dark3.0.cv1.bn", "class_name": "BatchNormalization", "config": {"name": "backbone.dark3.0.cv1.bn", "trainable": true, "axis": -1, "momentum": 0.97, "epsilon": 0.001, "center": true, "scale": true, "beta_initializer": {"class_name": "Zeros", "config": {}}, "gamma_initializer": {"class_name": "Ones", "config": {}}, "moving_mean_initializer": {"class_name": "Zeros", "config": {}}, "moving_variance_initializer": {"class_name": "Ones", "config": {}}, "beta_regularizer": null, "gamma_regularizer": null, "beta_constraint": null, "gamma_constraint": null}, "inbound_nodes": [[["backbone.dark3.0.cv1.conv", 0, 0, {}]]]}, {"name": "si_lu_14", "class_name": "SiLU", "config": {"name": "si_lu_14", "trainable": true}, "inbound_nodes": [[["backbone.dark3.0.cv3.bn", 0, 0, {}]]]}, {"name": "si_lu_12", "class_name": "SiLU", "config": {"name": "si_lu_12", "trainable": true}, "inbound_nodes": [[["backbone.dark3.0.cv1.bn", 0, 0, {}]]]}, {"name": "concatenate_2", "class_name": "Concatenate", "config": {"name": "concatenate_2", "trainable": true, "axis": -1}, "inbound_nodes": [[["si_lu_14", 0, 0, {}], ["si_lu_12", 0, 0, {}]]]}, {"name": "backbone.dark3.1.cv2.conv", "class_name": "Conv2D", "config": {"name": "backbone.dark3.1.cv2.conv", "trainable": true, "filters": 128, "kernel_size": [1, 1], "strides": [1, 1], "padding": "same", "data_format": "channels_last", "dilation_rate": [1, 1], "activation": "linear", "use_bias": false, "kernel_initializer": {"class_name": "RandomNormal", "config": {"mean": 0.0, "stddev": 0.02, "seed": null}}, "bias_initializer": {"class_name": "Zeros", "config": {}}, "kernel_regularizer": null, "bias_regularizer": null, "activity_regularizer": null, "kernel_constraint": null, "bias_constraint": null}, "inbound_nodes": [[["concatenate_2", 0, 0, {}]]]}, {"name": "backbone.dark3.1.cv2.bn", "class_name": "BatchNormalization", "config": {"name": "backbone.dark3.1.cv2.bn", "trainable": true, "axis": -1, "momentum": 0.97, "epsilon": 0.001, "center": true, "scale": true, "beta_initializer": {"class_name": "Zeros", "config": {}}, "gamma_initializer": {"class_name": "Ones", "config": {}}, "moving_mean_initializer": {"class_name": "Zeros", "config": {}}, "moving_variance_initializer": {"class_name": "Ones", "config": {}}, "beta_regularizer": null, "gamma_regularizer": null, "beta_constraint": null, "gamma_constraint": null}, "inbound_nodes": [[["backbone.dark3.1.cv2.conv", 0, 0, {}]]]}, {"name": "si_lu_16", "class_name": "SiLU", "config": {"name": "si_lu_16", "trainable": true}, "inbound_nodes": [[["backbone.dark3.1.cv2.bn", 0, 0, {}]]]}, {"name": "backbone.dark3.1.cv3.0.conv", "class_name": "Conv2D", "config": {"name": "backbone.dark3.1.cv3.0.conv", "trainable": true, "filters": 128, "kernel_size": [3, 3], "strides": [1, 1], "padding": "same", "data_format": "channels_last", "dilation_rate": [1, 1], "activation": "linear", "use_bias": false, "kernel_initializer": {"class_name": "RandomNormal", "config": {"mean": 0.0, "stddev": 0.02, "seed": null}}, "bias_initializer": {"class_name": "Zeros", "config": {}}, "kernel_regularizer": null, "bias_regularizer": null, "activity_regularizer": null, "kernel_constraint": null, "bias_constraint": null}, "inbound_nodes": [[["si_lu_16", 0, 0, {}]]]}, {"name": "backbone.dark3.1.cv3.0.bn", "class_name": "BatchNormalization", "config": {"name": "backbone.dark3.1.cv3.0.bn", "trainable": true, "axis": -1, "momentum": 0.97, "epsilon": 0.001, "center": true, "scale": true, "beta_initializer": {"class_name": "Zeros", "config": {}}, "gamma_initializer": {"class_name": "Ones", "config": {}}, "moving_mean_initializer": {"class_name": "Zeros", "config": {}}, "moving_variance_initializer": {"class_name": "Ones", "config": {}}, "beta_regularizer": null, "gamma_regularizer": null, "beta_constraint": null, "gamma_constraint": null}, "inbound_nodes": [[["backbone.dark3.1.cv3.0.conv", 0, 0, {}]]]}, {"name": "si_lu_17", "class_name": "SiLU", "config": {"name": "si_lu_17", "trainable": true}, "inbound_nodes": [[["backbone.dark3.1.cv3.0.bn", 0, 0, {}]]]}, {"name": "backbone.dark3.1.cv3.1.conv", "class_name": "Conv2D", "config": {"name": "backbone.dark3.1.cv3.1.conv", "trainable": true, "filters": 128, "kernel_size": [3, 3], "strides": [1, 1], "padding": "same", "data_format": "channels_last", "dilation_rate": [1, 1], "activation": "linear", "use_bias": false, "kernel_initializer": {"class_name": "RandomNormal", "config": {"mean": 0.0, "stddev": 0.02, "seed": null}}, "bias_initializer": {"class_name": "Zeros", "config": {}}, "kernel_regularizer": null, "bias_regularizer": null, "activity_regularizer": null, "kernel_constraint": null, "bias_constraint": null}, "inbound_nodes": [[["si_lu_17", 0, 0, {}]]]}, {"name": "backbone.dark3.1.cv3.1.bn", "class_name": "BatchNormalization", "config": {"name": "backbone.dark3.1.cv3.1.bn", "trainable": true, "axis": -1, "momentum": 0.97, "epsilon": 0.001, "center": true, "scale": true, "beta_initializer": {"class_name": "Zeros", "config": {}}, "gamma_initializer": {"class_name": "Ones", "config": {}}, "moving_mean_initializer": {"class_name": "Zeros", "config": {}}, "moving_variance_initializer": {"class_name": "Ones", "config": {}}, "beta_regularizer": null, "gamma_regularizer": null, "beta_constraint": null, "gamma_constraint": null}, "inbound_nodes": [[["backbone.dark3.1.cv3.1.conv", 0, 0, {}]]]}, {"name": "si_lu_18", "class_name": "SiLU", "config": {"name": "si_lu_18", "trainable": true}, "inbound_nodes": [[["backbone.dark3.1.cv3.1.bn", 0, 0, {}]]]}, {"name": "backbone.dark3.1.cv3.2.conv", "class_name": "Conv2D", "config": {"name": "backbone.dark3.1.cv3.2.conv", "trainable": true, "filters": 128, "kernel_size": [3, 3], "strides": [1, 1], "padding": "same", "data_format": "channels_last", "dilation_rate": [1, 1], "activation": "linear", "use_bias": false, "kernel_initializer": {"class_name": "RandomNormal", "config": {"mean": 0.0, "stddev": 0.02, "seed": null}}, "bias_initializer": {"class_name": "Zeros", "config": {}}, "kernel_regularizer": null, "bias_regularizer": null, "activity_regularizer": null, "kernel_constraint": null, "bias_constraint": null}, "inbound_nodes": [[["si_lu_18", 0, 0, {}]]]}, {"name": "backbone.dark3.1.cv3.2.bn", "class_name": "BatchNormalization", "config": {"name": "backbone.dark3.1.cv3.2.bn", "trainable": true, "axis": -1, "momentum": 0.97, "epsilon": 0.001, "center": true, "scale": true, "beta_initializer": {"class_name": "Zeros", "config": {}}, "gamma_initializer": {"class_name": "Ones", "config": {}}, "moving_mean_initializer": {"class_name": "Zeros", "config": {}}, "moving_variance_initializer": {"class_name": "Ones", "config": {}}, "beta_regularizer": null, "gamma_regularizer": null, "beta_constraint": null, "gamma_constraint": null}, "inbound_nodes": [[["backbone.dark3.1.cv3.2.conv", 0, 0, {}]]]}, {"name": "si_lu_19", "class_name": "SiLU", "config": {"name": "si_lu_19", "trainable": true}, "inbound_nodes": [[["backbone.dark3.1.cv3.2.bn", 0, 0, {}]]]}, {"name": "backbone.dark3.1.cv3.3.conv", "class_name": "Conv2D", "config": {"name": "backbone.dark3.1.cv3.3.conv", "trainable": true, "filters": 128, "kernel_size": [3, 3], "strides": [1, 1], "padding": "same", "data_format": "channels_last", "dilation_rate": [1, 1], "activation": "linear", "use_bias": false, "kernel_initializer": {"class_name": "RandomNormal", "config": {"mean": 0.0, "stddev": 0.02, "seed": null}}, "bias_initializer": {"class_name": "Zeros", "config": {}}, "kernel_regularizer": null, "bias_regularizer": null, "activity_regularizer": null, "kernel_constraint": null, "bias_constraint": null}, "inbound_nodes": [[["si_lu_19", 0, 0, {}]]]}, {"name": "backbone.dark3.1.cv1.conv", "class_name": "Conv2D", "config": {"name": "backbone.dark3.1.cv1.conv", "trainable": true, "filters": 128, "kernel_size": [1, 1], "strides": [1, 1], "padding": "same", "data_format": "channels_last", "dilation_rate": [1, 1], "activation": "linear", "use_bias": false, "kernel_initializer": {"class_name": "RandomNormal", "config": {"mean": 0.0, "stddev": 0.02, "seed": null}}, "bias_initializer": {"class_name": "Zeros", "config": {}}, "kernel_regularizer": null, "bias_regularizer": null, "activity_regularizer": null, "kernel_constraint": null, "bias_constraint": null}, "inbound_nodes": [[["concatenate_2", 0, 0, {}]]]}, {"name": "backbone.dark3.1.cv3.3.bn", "class_name": "BatchNormalization", "config": {"name": "backbone.dark3.1.cv3.3.bn", "trainable": true, "axis": -1, "momentum": 0.97, "epsilon": 0.001, "center": true, "scale": true, "beta_initializer": {"class_name": "Zeros", "config": {}}, "gamma_initializer": {"class_name": "Ones", "config": {}}, "moving_mean_initializer": {"class_name": "Zeros", "config": {}}, "moving_variance_initializer": {"class_name": "Ones", "config": {}}, "beta_regularizer": null, "gamma_regularizer": null, "beta_constraint": null, "gamma_constraint": null}, "inbound_nodes": [[["backbone.dark3.1.cv3.3.conv", 0, 0, {}]]]}, {"name": "backbone.dark3.1.cv1.bn", "class_name": "BatchNormalization", "config": {"name": "backbone.dark3.1.cv1.bn", "trainable": true, "axis": -1, "momentum": 0.97, "epsilon": 0.001, "center": true, "scale": true, "beta_initializer": {"class_name": "Zeros", "config": {}}, "gamma_initializer": {"class_name": "Ones", "config": {}}, "moving_mean_initializer": {"class_name": "Zeros", "config": {}}, "moving_variance_initializer": {"class_name": "Ones", "config": {}}, "beta_regularizer": null, "gamma_regularizer": null, "beta_constraint": null, "gamma_constraint": null}, "inbound_nodes": [[["backbone.dark3.1.cv1.conv", 0, 0, {}]]]}, {"name": "si_lu_20", "class_name": "SiLU", "config": {"name": "si_lu_20", "trainable": true}, "inbound_nodes": [[["backbone.dark3.1.cv3.3.bn", 0, 0, {}]]]}, {"name": "si_lu_15", "class_name": "SiLU", "config": {"name": "si_lu_15", "trainable": true}, "inbound_nodes": [[["backbone.dark3.1.cv1.bn", 0, 0, {}]]]}, {"name": "concatenate_3", "class_name": "Concatenate", "config": {"name": "concatenate_3", "trainable": true, "axis": -1}, "inbound_nodes": [[["si_lu_20", 0, 0, {}], ["si_lu_18", 0, 0, {}], ["si_lu_16", 0, 0, {}], ["si_lu_15", 0, 0, {}]]]}, {"name": "backbone.dark3.1.cv4.conv", "class_name": "Conv2D", "config": {"name": "backbone.dark3.1.cv4.conv", "trainable": true, "filters": 512, "kernel_size": [1, 1], "strides": [1, 1], "padding": "same", "data_format": "channels_last", "dilation_rate": [1, 1], "activation": "linear", "use_bias": false, "kernel_initializer": {"class_name": "RandomNormal", "config": {"mean": 0.0, "stddev": 0.02, "seed": null}}, "bias_initializer": {"class_name": "Zeros", "config": {}}, "kernel_regularizer": null, "bias_regularizer": null, "activity_regularizer": null, "kernel_constraint": null, "bias_constraint": null}, "inbound_nodes": [[["concatenate_3", 0, 0, {}]]]}, {"name": "backbone.dark3.1.cv4.bn", "class_name": "BatchNormalization", "config": {"name": "backbone.dark3.1.cv4.bn", "trainable": true, "axis": -1, "momentum": 0.97, "epsilon": 0.001, "center": true, "scale": true, "beta_initializer": {"class_name": "Zeros", "config": {}}, "gamma_initializer": {"class_name": "Ones", "config": {}}, "moving_mean_initializer": {"class_name": "Zeros", "config": {}}, "moving_variance_initializer": {"class_name": "Ones", "config": {}}, "beta_regularizer": null, "gamma_regularizer": null, "beta_constraint": null, "gamma_constraint": null}, "inbound_nodes": [[["backbone.dark3.1.cv4.conv", 0, 0, {}]]]}, {"name": "si_lu_21", "class_name": "SiLU", "config": {"name": "si_lu_21", "trainable": true}, "inbound_nodes": [[["backbone.dark3.1.cv4.bn", 0, 0, {}]]]}, {"name": "backbone.dark4.0.cv2.conv", "class_name": "Conv2D", "config": {"name": "backbone.dark4.0.cv2.conv", "trainable": true, "filters": 256, "kernel_size": [1, 1], "strides": [1, 1], "padding": "same", "data_format": "channels_last", "dilation_rate": [1, 1], "activation": "linear", "use_bias": false, "kernel_initializer": {"class_name": "RandomNormal", "config": {"mean": 0.0, "stddev": 0.02, "seed": null}}, "bias_initializer": {"class_name": "Zeros", "config": {}}, "kernel_regularizer": null, "bias_regularizer": null, "activity_regularizer": null, "kernel_constraint": null, "bias_constraint": null}, "inbound_nodes": [[["si_lu_21", 0, 0, {}]]]}, {"name": "backbone.dark4.0.cv2.bn", "class_name": "BatchNormalization", "config": {"name": "backbone.dark4.0.cv2.bn", "trainable": true, "axis": -1, "momentum": 0.97, "epsilon": 0.001, "center": true, "scale": true, "beta_initializer": {"class_name": "Zeros", "config": {}}, "gamma_initializer": {"class_name": "Ones", "config": {}}, "moving_mean_initializer": {"class_name": "Zeros", "config": {}}, "moving_variance_initializer": {"class_name": "Ones", "config": {}}, "beta_regularizer": null, "gamma_regularizer": null, "beta_constraint": null, "gamma_constraint": null}, "inbound_nodes": [[["backbone.dark4.0.cv2.conv", 0, 0, {}]]]}, {"name": "si_lu_23", "class_name": "SiLU", "config": {"name": "si_lu_23", "trainable": true}, "inbound_nodes": [[["backbone.dark4.0.cv2.bn", 0, 0, {}]]]}, {"name": "zero_padding2d_4", "class_name": "ZeroPadding2D", "config": {"name": "zero_padding2d_4", "trainable": true, "padding": [[1, 1], [1, 1]], "data_format": "channels_last"}, "inbound_nodes": [[["si_lu_23", 0, 0, {}]]]}, {"name": "max_pooling2d_2", "class_name": "MaxPooling2D", "config": {"name": "max_pooling2d_2", "trainable": true, "pool_size": [2, 2], "padding": "valid", "strides": [2, 2], "data_format": "channels_last"}, "inbound_nodes": [[["si_lu_21", 0, 0, {}]]]}, {"name": "backbone.dark4.0.cv3.conv", "class_name": "Conv2D", "config": {"name": "backbone.dark4.0.cv3.conv", "trainable": true, "filters": 256, "kernel_size": [3, 3], "strides": [2, 2], "padding": "valid", "data_format": "channels_last", "dilation_rate": [1, 1], "activation": "linear", "use_bias": false, "kernel_initializer": {"class_name": "RandomNormal", "config": {"mean": 0.0, "stddev": 0.02, "seed": null}}, "bias_initializer": {"class_name": "Zeros", "config": {}}, "kernel_regularizer": null, "bias_regularizer": null, "activity_regularizer": null, "kernel_constraint": null, "bias_constraint": null}, "inbound_nodes": [[["zero_padding2d_4", 0, 0, {}]]]}, {"name": "backbone.dark4.0.cv1.conv", "class_name": "Conv2D", "config": {"name": "backbone.dark4.0.cv1.conv", "trainable": true, "filters": 256, "kernel_size": [1, 1], "strides": [1, 1], "padding": "same", "data_format": "channels_last", "dilation_rate": [1, 1], "activation": "linear", "use_bias": false, "kernel_initializer": {"class_name": "RandomNormal", "config": {"mean": 0.0, "stddev": 0.02, "seed": null}}, "bias_initializer": {"class_name": "Zeros", "config": {}}, "kernel_regularizer": null, "bias_regularizer": null, "activity_regularizer": null, "kernel_constraint": null, "bias_constraint": null}, "inbound_nodes": [[["max_pooling2d_2", 0, 0, {}]]]}, {"name": "backbone.dark4.0.cv3.bn", "class_name": "BatchNormalization", "config": {"name": "backbone.dark4.0.cv3.bn", "trainable": true, "axis": -1, "momentum": 0.97, "epsilon": 0.001, "center": true, "scale": true, "beta_initializer": {"class_name": "Zeros", "config": {}}, "gamma_initializer": {"class_name": "Ones", "config": {}}, "moving_mean_initializer": {"class_name": "Zeros", "config": {}}, "moving_variance_initializer": {"class_name": "Ones", "config": {}}, "beta_regularizer": null, "gamma_regularizer": null, "beta_constraint": null, "gamma_constraint": null}, "inbound_nodes": [[["backbone.dark4.0.cv3.conv", 0, 0, {}]]]}, {"name": "backbone.dark4.0.cv1.bn", "class_name": "BatchNormalization", "config": {"name": "backbone.dark4.0.cv1.bn", "trainable": true, "axis": -1, "momentum": 0.97, "epsilon": 0.001, "center": true, "scale": true, "beta_initializer": {"class_name": "Zeros", "config": {}}, "gamma_initializer": {"class_name": "Ones", "config": {}}, "moving_mean_initializer": {"class_name": "Zeros", "config": {}}, "moving_variance_initializer": {"class_name": "Ones", "config": {}}, "beta_regularizer": null, "gamma_regularizer": null, "beta_constraint": null, "gamma_constraint": null}, "inbound_nodes": [[["backbone.dark4.0.cv1.conv", 0, 0, {}]]]}, {"name": "si_lu_24", "class_name": "SiLU", "config": {"name": "si_lu_24", "trainable": true}, "inbound_nodes": [[["backbone.dark4.0.cv3.bn", 0, 0, {}]]]}, {"name": "si_lu_22", "class_name": "SiLU", "config": {"name": "si_lu_22", "trainable": true}, "inbound_nodes": [[["backbone.dark4.0.cv1.bn", 0, 0, {}]]]}, {"name": "concatenate_4", "class_name": "Concatenate", "config": {"name": "concatenate_4", "trainable": true, "axis": -1}, "inbound_nodes": [[["si_lu_24", 0, 0, {}], ["si_lu_22", 0, 0, {}]]]}, {"name": "backbone.dark4.1.cv2.conv", "class_name": "Conv2D", "config": {"name": "backbone.dark4.1.cv2.conv", "trainable": true, "filters": 256, "kernel_size": [1, 1], "strides": [1, 1], "padding": "same", "data_format": "channels_last", "dilation_rate": [1, 1], "activation": "linear", "use_bias": false, "kernel_initializer": {"class_name": "RandomNormal", "config": {"mean": 0.0, "stddev": 0.02, "seed": null}}, "bias_initializer": {"class_name": "Zeros", "config": {}}, "kernel_regularizer": null, "bias_regularizer": null, "activity_regularizer": null, "kernel_constraint": null, "bias_constraint": null}, "inbound_nodes": [[["concatenate_4", 0, 0, {}]]]}, {"name": "backbone.dark4.1.cv2.bn", "class_name": "BatchNormalization", "config": {"name": "backbone.dark4.1.cv2.bn", "trainable": true, "axis": -1, "momentum": 0.97, "epsilon": 0.001, "center": true, "scale": true, "beta_initializer": {"class_name": "Zeros", "config": {}}, "gamma_initializer": {"class_name": "Ones", "config": {}}, "moving_mean_initializer": {"class_name": "Zeros", "config": {}}, "moving_variance_initializer": {"class_name": "Ones", "config": {}}, "beta_regularizer": null, "gamma_regularizer": null, "beta_constraint": null, "gamma_constraint": null}, "inbound_nodes": [[["backbone.dark4.1.cv2.conv", 0, 0, {}]]]}, {"name": "si_lu_26", "class_name": "SiLU", "config": {"name": "si_lu_26", "trainable": true}, "inbound_nodes": [[["backbone.dark4.1.cv2.bn", 0, 0, {}]]]}, {"name": "backbone.dark4.1.cv3.0.conv", "class_name": "Conv2D", "config": {"name": "backbone.dark4.1.cv3.0.conv", "trainable": true, "filters": 256, "kernel_size": [3, 3], "strides": [1, 1], "padding": "same", "data_format": "channels_last", "dilation_rate": [1, 1], "activation": "linear", "use_bias": false, "kernel_initializer": {"class_name": "RandomNormal", "config": {"mean": 0.0, "stddev": 0.02, "seed": null}}, "bias_initializer": {"class_name": "Zeros", "config": {}}, "kernel_regularizer": null, "bias_regularizer": null, "activity_regularizer": null, "kernel_constraint": null, "bias_constraint": null}, "inbound_nodes": [[["si_lu_26", 0, 0, {}]]]}, {"name": "backbone.dark4.1.cv3.0.bn", "class_name": "BatchNormalization", "config": {"name": "backbone.dark4.1.cv3.0.bn", "trainable": true, "axis": -1, "momentum": 0.97, "epsilon": 0.001, "center": true, "scale": true, "beta_initializer": {"class_name": "Zeros", "config": {}}, "gamma_initializer": {"class_name": "Ones", "config": {}}, "moving_mean_initializer": {"class_name": "Zeros", "config": {}}, "moving_variance_initializer": {"class_name": "Ones", "config": {}}, "beta_regularizer": null, "gamma_regularizer": null, "beta_constraint": null, "gamma_constraint": null}, "inbound_nodes": [[["backbone.dark4.1.cv3.0.conv", 0, 0, {}]]]}, {"name": "si_lu_27", "class_name": "SiLU", "config": {"name": "si_lu_27", "trainable": true}, "inbound_nodes": [[["backbone.dark4.1.cv3.0.bn", 0, 0, {}]]]}, {"name": "backbone.dark4.1.cv3.1.conv", "class_name": "Conv2D", "config": {"name": "backbone.dark4.1.cv3.1.conv", "trainable": true, "filters": 256, "kernel_size": [3, 3], "strides": [1, 1], "padding": "same", "data_format": "channels_last", "dilation_rate": [1, 1], "activation": "linear", "use_bias": false, "kernel_initializer": {"class_name": "RandomNormal", "config": {"mean": 0.0, "stddev": 0.02, "seed": null}}, "bias_initializer": {"class_name": "Zeros", "config": {}}, "kernel_regularizer": null, "bias_regularizer": null, "activity_regularizer": null, "kernel_constraint": null, "bias_constraint": null}, "inbound_nodes": [[["si_lu_27", 0, 0, {}]]]}, {"name": "backbone.dark4.1.cv3.1.bn", "class_name": "BatchNormalization", "config": {"name": "backbone.dark4.1.cv3.1.bn", "trainable": true, "axis": -1, "momentum": 0.97, "epsilon": 0.001, "center": true, "scale": true, "beta_initializer": {"class_name": "Zeros", "config": {}}, "gamma_initializer": {"class_name": "Ones", "config": {}}, "moving_mean_initializer": {"class_name": "Zeros", "config": {}}, "moving_variance_initializer": {"class_name": "Ones", "config": {}}, "beta_regularizer": null, "gamma_regularizer": null, "beta_constraint": null, "gamma_constraint": null}, "inbound_nodes": [[["backbone.dark4.1.cv3.1.conv", 0, 0, {}]]]}, {"name": "si_lu_28", "class_name": "SiLU", "config": {"name": "si_lu_28", "trainable": true}, "inbound_nodes": [[["backbone.dark4.1.cv3.1.bn", 0, 0, {}]]]}, {"name": "backbone.dark4.1.cv3.2.conv", "class_name": "Conv2D", "config": {"name": "backbone.dark4.1.cv3.2.conv", "trainable": true, "filters": 256, "kernel_size": [3, 3], "strides": [1, 1], "padding": "same", "data_format": "channels_last", "dilation_rate": [1, 1], "activation": "linear", "use_bias": false, "kernel_initializer": {"class_name": "RandomNormal", "config": {"mean": 0.0, "stddev": 0.02, "seed": null}}, "bias_initializer": {"class_name": "Zeros", "config": {}}, "kernel_regularizer": null, "bias_regularizer": null, "activity_regularizer": null, "kernel_constraint": null, "bias_constraint": null}, "inbound_nodes": [[["si_lu_28", 0, 0, {}]]]}, {"name": "backbone.dark4.1.cv3.2.bn", "class_name": "BatchNormalization", "config": {"name": "backbone.dark4.1.cv3.2.bn", "trainable": true, "axis": -1, "momentum": 0.97, "epsilon": 0.001, "center": true, "scale": true, "beta_initializer": {"class_name": "Zeros", "config": {}}, "gamma_initializer": {"class_name": "Ones", "config": {}}, "moving_mean_initializer": {"class_name": "Zeros", "config": {}}, "moving_variance_initializer": {"class_name": "Ones", "config": {}}, "beta_regularizer": null, "gamma_regularizer": null, "beta_constraint": null, "gamma_constraint": null}, "inbound_nodes": [[["backbone.dark4.1.cv3.2.conv", 0, 0, {}]]]}, {"name": "si_lu_29", "class_name": "SiLU", "config": {"name": "si_lu_29", "trainable": true}, "inbound_nodes": [[["backbone.dark4.1.cv3.2.bn", 0, 0, {}]]]}, {"name": "backbone.dark4.1.cv3.3.conv", "class_name": "Conv2D", "config": {"name": "backbone.dark4.1.cv3.3.conv", "trainable": true, "filters": 256, "kernel_size": [3, 3], "strides": [1, 1], "padding": "same", "data_format": "channels_last", "dilation_rate": [1, 1], "activation": "linear", "use_bias": false, "kernel_initializer": {"class_name": "RandomNormal", "config": {"mean": 0.0, "stddev": 0.02, "seed": null}}, "bias_initializer": {"class_name": "Zeros", "config": {}}, "kernel_regularizer": null, "bias_regularizer": null, "activity_regularizer": null, "kernel_constraint": null, "bias_constraint": null}, "inbound_nodes": [[["si_lu_29", 0, 0, {}]]]}, {"name": "backbone.dark4.1.cv1.conv", "class_name": "Conv2D", "config": {"name": "backbone.dark4.1.cv1.conv", "trainable": true, "filters": 256, "kernel_size": [1, 1], "strides": [1, 1], "padding": "same", "data_format": "channels_last", "dilation_rate": [1, 1], "activation": "linear", "use_bias": false, "kernel_initializer": {"class_name": "RandomNormal", "config": {"mean": 0.0, "stddev": 0.02, "seed": null}}, "bias_initializer": {"class_name": "Zeros", "config": {}}, "kernel_regularizer": null, "bias_regularizer": null, "activity_regularizer": null, "kernel_constraint": null, "bias_constraint": null}, "inbound_nodes": [[["concatenate_4", 0, 0, {}]]]}, {"name": "backbone.dark4.1.cv3.3.bn", "class_name": "BatchNormalization", "config": {"name": "backbone.dark4.1.cv3.3.bn", "trainable": true, "axis": -1, "momentum": 0.97, "epsilon": 0.001, "center": true, "scale": true, "beta_initializer": {"class_name": "Zeros", "config": {}}, "gamma_initializer": {"class_name": "Ones", "config": {}}, "moving_mean_initializer": {"class_name": "Zeros", "config": {}}, "moving_variance_initializer": {"class_name": "Ones", "config": {}}, "beta_regularizer": null, "gamma_regularizer": null, "beta_constraint": null, "gamma_constraint": null}, "inbound_nodes": [[["backbone.dark4.1.cv3.3.conv", 0, 0, {}]]]}, {"name": "backbone.dark4.1.cv1.bn", "class_name": "BatchNormalization", "config": {"name": "backbone.dark4.1.cv1.bn", "trainable": true, "axis": -1, "momentum": 0.97, "epsilon": 0.001, "center": true, "scale": true, "beta_initializer": {"class_name": "Zeros", "config": {}}, "gamma_initializer": {"class_name": "Ones", "config": {}}, "moving_mean_initializer": {"class_name": "Zeros", "config": {}}, "moving_variance_initializer": {"class_name": "Ones", "config": {}}, "beta_regularizer": null, "gamma_regularizer": null, "beta_constraint": null, "gamma_constraint": null}, "inbound_nodes": [[["backbone.dark4.1.cv1.conv", 0, 0, {}]]]}, {"name": "si_lu_30", "class_name": "SiLU", "config": {"name": "si_lu_30", "trainable": true}, "inbound_nodes": [[["backbone.dark4.1.cv3.3.bn", 0, 0, {}]]]}, {"name": "si_lu_25", "class_name": "SiLU", "config": {"name": "si_lu_25", "trainable": true}, "inbound_nodes": [[["backbone.dark4.1.cv1.bn", 0, 0, {}]]]}, {"name": "concatenate_5", "class_name": "Concatenate", "config": {"name": "concatenate_5", "trainable": true, "axis": -1}, "inbound_nodes": [[["si_lu_30", 0, 0, {}], ["si_lu_28", 0, 0, {}], ["si_lu_26", 0, 0, {}], ["si_lu_25", 0, 0, {}]]]}, {"name": "backbone.dark4.1.cv4.conv", "class_name": "Conv2D", "config": {"name": "backbone.dark4.1.cv4.conv", "trainable": true, "filters": 1024, "kernel_size": [1, 1], "strides": [1, 1], "padding": "same", "data_format": "channels_last", "dilation_rate": [1, 1], "activation": "linear", "use_bias": false, "kernel_initializer": {"class_name": "RandomNormal", "config": {"mean": 0.0, "stddev": 0.02, "seed": null}}, "bias_initializer": {"class_name": "Zeros", "config": {}}, "kernel_regularizer": null, "bias_regularizer": null, "activity_regularizer": null, "kernel_constraint": null, "bias_constraint": null}, "inbound_nodes": [[["concatenate_5", 0, 0, {}]]]}, {"name": "backbone.dark4.1.cv4.bn", "class_name": "BatchNormalization", "config": {"name": "backbone.dark4.1.cv4.bn", "trainable": true, "axis": -1, "momentum": 0.97, "epsilon": 0.001, "center": true, "scale": true, "beta_initializer": {"class_name": "Zeros", "config": {}}, "gamma_initializer": {"class_name": "Ones", "config": {}}, "moving_mean_initializer": {"class_name": "Zeros", "config": {}}, "moving_variance_initializer": {"class_name": "Ones", "config": {}}, "beta_regularizer": null, "gamma_regularizer": null, "beta_constraint": null, "gamma_constraint": null}, "inbound_nodes": [[["backbone.dark4.1.cv4.conv", 0, 0, {}]]]}, {"name": "si_lu_31", "class_name": "SiLU", "config": {"name": "si_lu_31", "trainable": true}, "inbound_nodes": [[["backbone.dark4.1.cv4.bn", 0, 0, {}]]]}, {"name": "backbone.dark5.0.cv2.conv", "class_name": "Conv2D", "config": {"name": "backbone.dark5.0.cv2.conv", "trainable": true, "filters": 512, "kernel_size": [1, 1], "strides": [1, 1], "padding": "same", "data_format": "channels_last", "dilation_rate": [1, 1], "activation": "linear", "use_bias": false, "kernel_initializer": {"class_name": "RandomNormal", "config": {"mean": 0.0, "stddev": 0.02, "seed": null}}, "bias_initializer": {"class_name": "Zeros", "config": {}}, "kernel_regularizer": null, "bias_regularizer": null, "activity_regularizer": null, "kernel_constraint": null, "bias_constraint": null}, "inbound_nodes": [[["si_lu_31", 0, 0, {}]]]}, {"name": "backbone.dark5.0.cv2.bn", "class_name": "BatchNormalization", "config": {"name": "backbone.dark5.0.cv2.bn", "trainable": true, "axis": -1, "momentum": 0.97, "epsilon": 0.001, "center": true, "scale": true, "beta_initializer": {"class_name": "Zeros", "config": {}}, "gamma_initializer": {"class_name": "Ones", "config": {}}, "moving_mean_initializer": {"class_name": "Zeros", "config": {}}, "moving_variance_initializer": {"class_name": "Ones", "config": {}}, "beta_regularizer": null, "gamma_regularizer": null, "beta_constraint": null, "gamma_constraint": null}, "inbound_nodes": [[["backbone.dark5.0.cv2.conv", 0, 0, {}]]]}, {"name": "si_lu_33", "class_name": "SiLU", "config": {"name": "si_lu_33", "trainable": true}, "inbound_nodes": [[["backbone.dark5.0.cv2.bn", 0, 0, {}]]]}, {"name": "zero_padding2d_5", "class_name": "ZeroPadding2D", "config": {"name": "zero_padding2d_5", "trainable": true, "padding": [[1, 1], [1, 1]], "data_format": "channels_last"}, "inbound_nodes": [[["si_lu_33", 0, 0, {}]]]}, {"name": "max_pooling2d_3", "class_name": "MaxPooling2D", "config": {"name": "max_pooling2d_3", "trainable": true, "pool_size": [2, 2], "padding": "valid", "strides": [2, 2], "data_format": "channels_last"}, "inbound_nodes": [[["si_lu_31", 0, 0, {}]]]}, {"name": "backbone.dark5.0.cv3.conv", "class_name": "Conv2D", "config": {"name": "backbone.dark5.0.cv3.conv", "trainable": true, "filters": 512, "kernel_size": [3, 3], "strides": [2, 2], "padding": "valid", "data_format": "channels_last", "dilation_rate": [1, 1], "activation": "linear", "use_bias": false, "kernel_initializer": {"class_name": "RandomNormal", "config": {"mean": 0.0, "stddev": 0.02, "seed": null}}, "bias_initializer": {"class_name": "Zeros", "config": {}}, "kernel_regularizer": null, "bias_regularizer": null, "activity_regularizer": null, "kernel_constraint": null, "bias_constraint": null}, "inbound_nodes": [[["zero_padding2d_5", 0, 0, {}]]]}, {"name": "backbone.dark5.0.cv1.conv", "class_name": "Conv2D", "config": {"name": "backbone.dark5.0.cv1.conv", "trainable": true, "filters": 512, "kernel_size": [1, 1], "strides": [1, 1], "padding": "same", "data_format": "channels_last", "dilation_rate": [1, 1], "activation": "linear", "use_bias": false, "kernel_initializer": {"class_name": "RandomNormal", "config": {"mean": 0.0, "stddev": 0.02, "seed": null}}, "bias_initializer": {"class_name": "Zeros", "config": {}}, "kernel_regularizer": null, "bias_regularizer": null, "activity_regularizer": null, "kernel_constraint": null, "bias_constraint": null}, "inbound_nodes": [[["max_pooling2d_3", 0, 0, {}]]]}, {"name": "backbone.dark5.0.cv3.bn", "class_name": "BatchNormalization", "config": {"name": "backbone.dark5.0.cv3.bn", "trainable": true, "axis": -1, "momentum": 0.97, "epsilon": 0.001, "center": true, "scale": true, "beta_initializer": {"class_name": "Zeros", "config": {}}, "gamma_initializer": {"class_name": "Ones", "config": {}}, "moving_mean_initializer": {"class_name": "Zeros", "config": {}}, "moving_variance_initializer": {"class_name": "Ones", "config": {}}, "beta_regularizer": null, "gamma_regularizer": null, "beta_constraint": null, "gamma_constraint": null}, "inbound_nodes": [[["backbone.dark5.0.cv3.conv", 0, 0, {}]]]}, {"name": "backbone.dark5.0.cv1.bn", "class_name": "BatchNormalization", "config": {"name": "backbone.dark5.0.cv1.bn", "trainable": true, "axis": -1, "momentum": 0.97, "epsilon": 0.001, "center": true, "scale": true, "beta_initializer": {"class_name": "Zeros", "config": {}}, "gamma_initializer": {"class_name": "Ones", "config": {}}, "moving_mean_initializer": {"class_name": "Zeros", "config": {}}, "moving_variance_initializer": {"class_name": "Ones", "config": {}}, "beta_regularizer": null, "gamma_regularizer": null, "beta_constraint": null, "gamma_constraint": null}, "inbound_nodes": [[["backbone.dark5.0.cv1.conv", 0, 0, {}]]]}, {"name": "si_lu_34", "class_name": "SiLU", "config": {"name": "si_lu_34", "trainable": true}, "inbound_nodes": [[["backbone.dark5.0.cv3.bn", 0, 0, {}]]]}, {"name": "si_lu_32", "class_name": "SiLU", "config": {"name": "si_lu_32", "trainable": true}, "inbound_nodes": [[["backbone.dark5.0.cv1.bn", 0, 0, {}]]]}, {"name": "concatenate_6", "class_name": "Concatenate", "config": {"name": "concatenate_6", "trainable": true, "axis": -1}, "inbound_nodes": [[["si_lu_34", 0, 0, {}], ["si_lu_32", 0, 0, {}]]]}, {"name": "backbone.dark5.1.cv2.conv", "class_name": "Conv2D", "config": {"name": "backbone.dark5.1.cv2.conv", "trainable": true, "filters": 256, "kernel_size": [1, 1], "strides": [1, 1], "padding": "same", "data_format": "channels_last", "dilation_rate": [1, 1], "activation": "linear", "use_bias": false, "kernel_initializer": {"class_name": "RandomNormal", "config": {"mean": 0.0, "stddev": 0.02, "seed": null}}, "bias_initializer": {"class_name": "Zeros", "config": {}}, "kernel_regularizer": null, "bias_regularizer": null, "activity_regularizer": null, "kernel_constraint": null, "bias_constraint": null}, "inbound_nodes": [[["concatenate_6", 0, 0, {}]]]}, {"name": "backbone.dark5.1.cv2.bn", "class_name": "BatchNormalization", "config": {"name": "backbone.dark5.1.cv2.bn", "trainable": true, "axis": -1, "momentum": 0.97, "epsilon": 0.001, "center": true, "scale": true, "beta_initializer": {"class_name": "Zeros", "config": {}}, "gamma_initializer": {"class_name": "Ones", "config": {}}, "moving_mean_initializer": {"class_name": "Zeros", "config": {}}, "moving_variance_initializer": {"class_name": "Ones", "config": {}}, "beta_regularizer": null, "gamma_regularizer": null, "beta_constraint": null, "gamma_constraint": null}, "inbound_nodes": [[["backbone.dark5.1.cv2.conv", 0, 0, {}]]]}, {"name": "si_lu_36", "class_name": "SiLU", "config": {"name": "si_lu_36", "trainable": true}, "inbound_nodes": [[["backbone.dark5.1.cv2.bn", 0, 0, {}]]]}, {"name": "backbone.dark5.1.cv3.0.conv", "class_name": "Conv2D", "config": {"name": "backbone.dark5.1.cv3.0.conv", "trainable": true, "filters": 256, "kernel_size": [3, 3], "strides": [1, 1], "padding": "same", "data_format": "channels_last", "dilation_rate": [1, 1], "activation": "linear", "use_bias": false, "kernel_initializer": {"class_name": "RandomNormal", "config": {"mean": 0.0, "stddev": 0.02, "seed": null}}, "bias_initializer": {"class_name": "Zeros", "config": {}}, "kernel_regularizer": null, "bias_regularizer": null, "activity_regularizer": null, "kernel_constraint": null, "bias_constraint": null}, "inbound_nodes": [[["si_lu_36", 0, 0, {}]]]}, {"name": "backbone.dark5.1.cv3.0.bn", "class_name": "BatchNormalization", "config": {"name": "backbone.dark5.1.cv3.0.bn", "trainable": true, "axis": -1, "momentum": 0.97, "epsilon": 0.001, "center": true, "scale": true, "beta_initializer": {"class_name": "Zeros", "config": {}}, "gamma_initializer": {"class_name": "Ones", "config": {}}, "moving_mean_initializer": {"class_name": "Zeros", "config": {}}, "moving_variance_initializer": {"class_name": "Ones", "config": {}}, "beta_regularizer": null, "gamma_regularizer": null, "beta_constraint": null, "gamma_constraint": null}, "inbound_nodes": [[["backbone.dark5.1.cv3.0.conv", 0, 0, {}]]]}, {"name": "si_lu_37", "class_name": "SiLU", "config": {"name": "si_lu_37", "trainable": true}, "inbound_nodes": [[["backbone.dark5.1.cv3.0.bn", 0, 0, {}]]]}, {"name": "backbone.dark5.1.cv3.1.conv", "class_name": "Conv2D", "config": {"name": "backbone.dark5.1.cv3.1.conv", "trainable": true, "filters": 256, "kernel_size": [3, 3], "strides": [1, 1], "padding": "same", "data_format": "channels_last", "dilation_rate": [1, 1], "activation": "linear", "use_bias": false, "kernel_initializer": {"class_name": "RandomNormal", "config": {"mean": 0.0, "stddev": 0.02, "seed": null}}, "bias_initializer": {"class_name": "Zeros", "config": {}}, "kernel_regularizer": null, "bias_regularizer": null, "activity_regularizer": null, "kernel_constraint": null, "bias_constraint": null}, "inbound_nodes": [[["si_lu_37", 0, 0, {}]]]}, {"name": "backbone.dark5.1.cv3.1.bn", "class_name": "BatchNormalization", "config": {"name": "backbone.dark5.1.cv3.1.bn", "trainable": true, "axis": -1, "momentum": 0.97, "epsilon": 0.001, "center": true, "scale": true, "beta_initializer": {"class_name": "Zeros", "config": {}}, "gamma_initializer": {"class_name": "Ones", "config": {}}, "moving_mean_initializer": {"class_name": "Zeros", "config": {}}, "moving_variance_initializer": {"class_name": "Ones", "config": {}}, "beta_regularizer": null, "gamma_regularizer": null, "beta_constraint": null, "gamma_constraint": null}, "inbound_nodes": [[["backbone.dark5.1.cv3.1.conv", 0, 0, {}]]]}, {"name": "si_lu_38", "class_name": "SiLU", "config": {"name": "si_lu_38", "trainable": true}, "inbound_nodes": [[["backbone.dark5.1.cv3.1.bn", 0, 0, {}]]]}, {"name": "backbone.dark5.1.cv3.2.conv", "class_name": "Conv2D", "config": {"name": "backbone.dark5.1.cv3.2.conv", "trainable": true, "filters": 256, "kernel_size": [3, 3], "strides": [1, 1], "padding": "same", "data_format": "channels_last", "dilation_rate": [1, 1], "activation": "linear", "use_bias": false, "kernel_initializer": {"class_name": "RandomNormal", "config": {"mean": 0.0, "stddev": 0.02, "seed": null}}, "bias_initializer": {"class_name": "Zeros", "config": {}}, "kernel_regularizer": null, "bias_regularizer": null, "activity_regularizer": null, "kernel_constraint": null, "bias_constraint": null}, "inbound_nodes": [[["si_lu_38", 0, 0, {}]]]}, {"name": "backbone.dark5.1.cv3.2.bn", "class_name": "BatchNormalization", "config": {"name": "backbone.dark5.1.cv3.2.bn", "trainable": true, "axis": -1, "momentum": 0.97, "epsilon": 0.001, "center": true, "scale": true, "beta_initializer": {"class_name": "Zeros", "config": {}}, "gamma_initializer": {"class_name": "Ones", "config": {}}, "moving_mean_initializer": {"class_name": "Zeros", "config": {}}, "moving_variance_initializer": {"class_name": "Ones", "config": {}}, "beta_regularizer": null, "gamma_regularizer": null, "beta_constraint": null, "gamma_constraint": null}, "inbound_nodes": [[["backbone.dark5.1.cv3.2.conv", 0, 0, {}]]]}, {"name": "si_lu_39", "class_name": "SiLU", "config": {"name": "si_lu_39", "trainable": true}, "inbound_nodes": [[["backbone.dark5.1.cv3.2.bn", 0, 0, {}]]]}, {"name": "backbone.dark5.1.cv3.3.conv", "class_name": "Conv2D", "config": {"name": "backbone.dark5.1.cv3.3.conv", "trainable": true, "filters": 256, "kernel_size": [3, 3], "strides": [1, 1], "padding": "same", "data_format": "channels_last", "dilation_rate": [1, 1], "activation": "linear", "use_bias": false, "kernel_initializer": {"class_name": "RandomNormal", "config": {"mean": 0.0, "stddev": 0.02, "seed": null}}, "bias_initializer": {"class_name": "Zeros", "config": {}}, "kernel_regularizer": null, "bias_regularizer": null, "activity_regularizer": null, "kernel_constraint": null, "bias_constraint": null}, "inbound_nodes": [[["si_lu_39", 0, 0, {}]]]}, {"name": "backbone.dark5.1.cv1.conv", "class_name": "Conv2D", "config": {"name": "backbone.dark5.1.cv1.conv", "trainable": true, "filters": 256, "kernel_size": [1, 1], "strides": [1, 1], "padding": "same", "data_format": "channels_last", "dilation_rate": [1, 1], "activation": "linear", "use_bias": false, "kernel_initializer": {"class_name": "RandomNormal", "config": {"mean": 0.0, "stddev": 0.02, "seed": null}}, "bias_initializer": {"class_name": "Zeros", "config": {}}, "kernel_regularizer": null, "bias_regularizer": null, "activity_regularizer": null, "kernel_constraint": null, "bias_constraint": null}, "inbound_nodes": [[["concatenate_6", 0, 0, {}]]]}, {"name": "backbone.dark5.1.cv3.3.bn", "class_name": "BatchNormalization", "config": {"name": "backbone.dark5.1.cv3.3.bn", "trainable": true, "axis": -1, "momentum": 0.97, "epsilon": 0.001, "center": true, "scale": true, "beta_initializer": {"class_name": "Zeros", "config": {}}, "gamma_initializer": {"class_name": "Ones", "config": {}}, "moving_mean_initializer": {"class_name": "Zeros", "config": {}}, "moving_variance_initializer": {"class_name": "Ones", "config": {}}, "beta_regularizer": null, "gamma_regularizer": null, "beta_constraint": null, "gamma_constraint": null}, "inbound_nodes": [[["backbone.dark5.1.cv3.3.conv", 0, 0, {}]]]}, {"name": "backbone.dark5.1.cv1.bn", "class_name": "BatchNormalization", "config": {"name": "backbone.dark5.1.cv1.bn", "trainable": true, "axis": -1, "momentum": 0.97, "epsilon": 0.001, "center": true, "scale": true, "beta_initializer": {"class_name": "Zeros", "config": {}}, "gamma_initializer": {"class_name": "Ones", "config": {}}, "moving_mean_initializer": {"class_name": "Zeros", "config": {}}, "moving_variance_initializer": {"class_name": "Ones", "config": {}}, "beta_regularizer": null, "gamma_regularizer": null, "beta_constraint": null, "gamma_constraint": null}, "inbound_nodes": [[["backbone.dark5.1.cv1.conv", 0, 0, {}]]]}, {"name": "si_lu_40", "class_name": "SiLU", "config": {"name": "si_lu_40", "trainable": true}, "inbound_nodes": [[["backbone.dark5.1.cv3.3.bn", 0, 0, {}]]]}, {"name": "si_lu_35", "class_name": "SiLU", "config": {"name": "si_lu_35", "trainable": true}, "inbound_nodes": [[["backbone.dark5.1.cv1.bn", 0, 0, {}]]]}, {"name": "concatenate_7", "class_name": "Concatenate", "config": {"name": "concatenate_7", "trainable": true, "axis": -1}, "inbound_nodes": [[["si_lu_40", 0, 0, {}], ["si_lu_38", 0, 0, {}], ["si_lu_36", 0, 0, {}], ["si_lu_35", 0, 0, {}]]]}, {"name": "backbone.dark5.1.cv4.conv", "class_name": "Conv2D", "config": {"name": "backbone.dark5.1.cv4.conv", "trainable": true, "filters": 1024, "kernel_size": [1, 1], "strides": [1, 1], "padding": "same", "data_format": "channels_last", "dilation_rate": [1, 1], "activation": "linear", "use_bias": false, "kernel_initializer": {"class_name": "RandomNormal", "config": {"mean": 0.0, "stddev": 0.02, "seed": null}}, "bias_initializer": {"class_name": "Zeros", "config": {}}, "kernel_regularizer": null, "bias_regularizer": null, "activity_regularizer": null, "kernel_constraint": null, "bias_constraint": null}, "inbound_nodes": [[["concatenate_7", 0, 0, {}]]]}, {"name": "backbone.dark5.1.cv4.bn", "class_name": "BatchNormalization", "config": {"name": "backbone.dark5.1.cv4.bn", "trainable": true, "axis": -1, "momentum": 0.97, "epsilon": 0.001, "center": true, "scale": true, "beta_initializer": {"class_name": "Zeros", "config": {}}, "gamma_initializer": {"class_name": "Ones", "config": {}}, "moving_mean_initializer": {"class_name": "Zeros", "config": {}}, "moving_variance_initializer": {"class_name": "Ones", "config": {}}, "beta_regularizer": null, "gamma_regularizer": null, "beta_constraint": null, "gamma_constraint": null}, "inbound_nodes": [[["backbone.dark5.1.cv4.conv", 0, 0, {}]]]}, {"name": "si_lu_41", "class_name": "SiLU", "config": {"name": "si_lu_41", "trainable": true}, "inbound_nodes": [[["backbone.dark5.1.cv4.bn", 0, 0, {}]]]}, {"name": "sppcspc.cv1.conv", "class_name": "Conv2D", "config": {"name": "sppcspc.cv1.conv", "trainable": true, "filters": 512, "kernel_size": [1, 1], "strides": [1, 1], "padding": "same", "data_format": "channels_last", "dilation_rate": [1, 1], "activation": "linear", "use_bias": false, "kernel_initializer": {"class_name": "RandomNormal", "config": {"mean": 0.0, "stddev": 0.02, "seed": null}}, "bias_initializer": {"class_name": "Zeros", "config": {}}, "kernel_regularizer": null, "bias_regularizer": null, "activity_regularizer": null, "kernel_constraint": null, "bias_constraint": null}, "inbound_nodes": [[["si_lu_41", 0, 0, {}]]]}, {"name": "sppcspc.cv1.bn", "class_name": "BatchNormalization", "config": {"name": "sppcspc.cv1.bn", "trainable": true, "axis": -1, "momentum": 0.97, "epsilon": 0.001, "center": true, "scale": true, "beta_initializer": {"class_name": "Zeros", "config": {}}, "gamma_initializer": {"class_name": "Ones", "config": {}}, "moving_mean_initializer": {"class_name": "Zeros", "config": {}}, "moving_variance_initializer": {"class_name": "Ones", "config": {}}, "beta_regularizer": null, "gamma_regularizer": null, "beta_constraint": null, "gamma_constraint": null}, "inbound_nodes": [[["sppcspc.cv1.conv", 0, 0, {}]]]}, {"name": "si_lu_42", "class_name": "SiLU", "config": {"name": "si_lu_42", "trainable": true}, "inbound_nodes": [[["sppcspc.cv1.bn", 0, 0, {}]]]}, {"name": "sppcspc.cv3.conv", "class_name": "Conv2D", "config": {"name": "sppcspc.cv3.conv", "trainable": true, "filters": 512, "kernel_size": [3, 3], "strides": [1, 1], "padding": "same", "data_format": "channels_last", "dilation_rate": [1, 1], "activation": "linear", "use_bias": false, "kernel_initializer": {"class_name": "RandomNormal", "config": {"mean": 0.0, "stddev": 0.02, "seed": null}}, "bias_initializer": {"class_name": "Zeros", "config": {}}, "kernel_regularizer": null, "bias_regularizer": null, "activity_regularizer": null, "kernel_constraint": null, "bias_constraint": null}, "inbound_nodes": [[["si_lu_42", 0, 0, {}]]]}, {"name": "sppcspc.cv3.bn", "class_name": "BatchNormalization", "config": {"name": "sppcspc.cv3.bn", "trainable": true, "axis": -1, "momentum": 0.97, "epsilon": 0.001, "center": true, "scale": true, "beta_initializer": {"class_name": "Zeros", "config": {}}, "gamma_initializer": {"class_name": "Ones", "config": {}}, "moving_mean_initializer": {"class_name": "Zeros", "config": {}}, "moving_variance_initializer": {"class_name": "Ones", "config": {}}, "beta_regularizer": null, "gamma_regularizer": null, "beta_constraint": null, "gamma_constraint": null}, "inbound_nodes": [[["sppcspc.cv3.conv", 0, 0, {}]]]}, {"name": "si_lu_43", "class_name": "SiLU", "config": {"name": "si_lu_43", "trainable": true}, "inbound_nodes": [[["sppcspc.cv3.bn", 0, 0, {}]]]}, {"name": "sppcspc.cv4.conv", "class_name": "Conv2D", "config": {"name": "sppcspc.cv4.conv", "trainable": true, "filters": 512, "kernel_size": [1, 1], "strides": [1, 1], "padding": "same", "data_format": "channels_last", "dilation_rate": [1, 1], "activation": "linear", "use_bias": false, "kernel_initializer": {"class_name": "RandomNormal", "config": {"mean": 0.0, "stddev": 0.02, "seed": null}}, "bias_initializer": {"class_name": "Zeros", "config": {}}, "kernel_regularizer": null, "bias_regularizer": null, "activity_regularizer": null, "kernel_constraint": null, "bias_constraint": null}, "inbound_nodes": [[["si_lu_43", 0, 0, {}]]]}, {"name": "sppcspc.cv4.bn", "class_name": "BatchNormalization", "config": {"name": "sppcspc.cv4.bn", "trainable": true, "axis": -1, "momentum": 0.97, "epsilon": 0.001, "center": true, "scale": true, "beta_initializer": {"class_name": "Zeros", "config": {}}, "gamma_initializer": {"class_name": "Ones", "config": {}}, "moving_mean_initializer": {"class_name": "Zeros", "config": {}}, "moving_variance_initializer": {"class_name": "Ones", "config": {}}, "beta_regularizer": null, "gamma_regularizer": null, "beta_constraint": null, "gamma_constraint": null}, "inbound_nodes": [[["sppcspc.cv4.conv", 0, 0, {}]]]}, {"name": "si_lu_44", "class_name": "SiLU", "config": {"name": "si_lu_44", "trainable": true}, "inbound_nodes": [[["sppcspc.cv4.bn", 0, 0, {}]]]}, {"name": "max_pooling2d_4", "class_name": "MaxPooling2D", "config": {"name": "max_pooling2d_4", "trainable": true, "pool_size": [5, 5], "padding": "same", "strides": [1, 1], "data_format": "channels_last"}, "inbound_nodes": [[["si_lu_44", 0, 0, {}]]]}, {"name": "max_pooling2d_5", "class_name": "MaxPooling2D", "config": {"name": "max_pooling2d_5", "trainable": true, "pool_size": [9, 9], "padding": "same", "strides": [1, 1], "data_format": "channels_last"}, "inbound_nodes": [[["si_lu_44", 0, 0, {}]]]}, {"name": "max_pooling2d_6", "class_name": "MaxPooling2D", "config": {"name": "max_pooling2d_6", "trainable": true, "pool_size": [13, 13], "padding": "same", "strides": [1, 1], "data_format": "channels_last"}, "inbound_nodes": [[["si_lu_44", 0, 0, {}]]]}, {"name": "concatenate_8", "class_name": "Concatenate", "config": {"name": "concatenate_8", "trainable": true, "axis": -1}, "inbound_nodes": [[["si_lu_44", 0, 0, {}], ["max_pooling2d_4", 0, 0, {}], ["max_pooling2d_5", 0, 0, {}], ["max_pooling2d_6", 0, 0, {}]]]}, {"name": "sppcspc.cv5.conv", "class_name": "Conv2D", "config": {"name": "sppcspc.cv5.conv", "trainable": true, "filters": 512, "kernel_size": [1, 1], "strides": [1, 1], "padding": "same", "data_format": "channels_last", "dilation_rate": [1, 1], "activation": "linear", "use_bias": false, "kernel_initializer": {"class_name": "RandomNormal", "config": {"mean": 0.0, "stddev": 0.02, "seed": null}}, "bias_initializer": {"class_name": "Zeros", "config": {}}, "kernel_regularizer": null, "bias_regularizer": null, "activity_regularizer": null, "kernel_constraint": null, "bias_constraint": null}, "inbound_nodes": [[["concatenate_8", 0, 0, {}]]]}, {"name": "sppcspc.cv5.bn", "class_name": "BatchNormalization", "config": {"name": "sppcspc.cv5.bn", "trainable": true, "axis": -1, "momentum": 0.97, "epsilon": 0.001, "center": true, "scale": true, "beta_initializer": {"class_name": "Zeros", "config": {}}, "gamma_initializer": {"class_name": "Ones", "config": {}}, "moving_mean_initializer": {"class_name": "Zeros", "config": {}}, "moving_variance_initializer": {"class_name": "Ones", "config": {}}, "beta_regularizer": null, "gamma_regularizer": null, "beta_constraint": null, "gamma_constraint": null}, "inbound_nodes": [[["sppcspc.cv5.conv", 0, 0, {}]]]}, {"name": "si_lu_45", "class_name": "SiLU", "config": {"name": "si_lu_45", "trainable": true}, "inbound_nodes": [[["sppcspc.cv5.bn", 0, 0, {}]]]}, {"name": "sppcspc.cv6.conv", "class_name": "Conv2D", "config": {"name": "sppcspc.cv6.conv", "trainable": true, "filters": 512, "kernel_size": [3, 3], "strides": [1, 1], "padding": "same", "data_format": "channels_last", "dilation_rate": [1, 1], "activation": "linear", "use_bias": false, "kernel_initializer": {"class_name": "RandomNormal", "config": {"mean": 0.0, "stddev": 0.02, "seed": null}}, "bias_initializer": {"class_name": "Zeros", "config": {}}, "kernel_regularizer": null, "bias_regularizer": null, "activity_regularizer": null, "kernel_constraint": null, "bias_constraint": null}, "inbound_nodes": [[["si_lu_45", 0, 0, {}]]]}, {"name": "sppcspc.cv2.conv", "class_name": "Conv2D", "config": {"name": "sppcspc.cv2.conv", "trainable": true, "filters": 512, "kernel_size": [1, 1], "strides": [1, 1], "padding": "same", "data_format": "channels_last", "dilation_rate": [1, 1], "activation": "linear", "use_bias": false, "kernel_initializer": {"class_name": "RandomNormal", "config": {"mean": 0.0, "stddev": 0.02, "seed": null}}, "bias_initializer": {"class_name": "Zeros", "config": {}}, "kernel_regularizer": null, "bias_regularizer": null, "activity_regularizer": null, "kernel_constraint": null, "bias_constraint": null}, "inbound_nodes": [[["si_lu_41", 0, 0, {}]]]}, {"name": "sppcspc.cv6.bn", "class_name": "BatchNormalization", "config": {"name": "sppcspc.cv6.bn", "trainable": true, "axis": -1, "momentum": 0.97, "epsilon": 0.001, "center": true, "scale": true, "beta_initializer": {"class_name": "Zeros", "config": {}}, "gamma_initializer": {"class_name": "Ones", "config": {}}, "moving_mean_initializer": {"class_name": "Zeros", "config": {}}, "moving_variance_initializer": {"class_name": "Ones", "config": {}}, "beta_regularizer": null, "gamma_regularizer": null, "beta_constraint": null, "gamma_constraint": null}, "inbound_nodes": [[["sppcspc.cv6.conv", 0, 0, {}]]]}, {"name": "sppcspc.cv2.bn", "class_name": "BatchNormalization", "config": {"name": "sppcspc.cv2.bn", "trainable": true, "axis": -1, "momentum": 0.97, "epsilon": 0.001, "center": true, "scale": true, "beta_initializer": {"class_name": "Zeros", "config": {}}, "gamma_initializer": {"class_name": "Ones", "config": {}}, "moving_mean_initializer": {"class_name": "Zeros", "config": {}}, "moving_variance_initializer": {"class_name": "Ones", "config": {}}, "beta_regularizer": null, "gamma_regularizer": null, "beta_constraint": null, "gamma_constraint": null}, "inbound_nodes": [[["sppcspc.cv2.conv", 0, 0, {}]]]}, {"name": "si_lu_46", "class_name": "SiLU", "config": {"name": "si_lu_46", "trainable": true}, "inbound_nodes": [[["sppcspc.cv6.bn", 0, 0, {}]]]}, {"name": "si_lu_47", "class_name": "SiLU", "config": {"name": "si_lu_47", "trainable": true}, "inbound_nodes": [[["sppcspc.cv2.bn", 0, 0, {}]]]}, {"name": "concatenate_9", "class_name": "Concatenate", "config": {"name": "concatenate_9", "trainable": true, "axis": -1}, "inbound_nodes": [[["si_lu_46", 0, 0, {}], ["si_lu_47", 0, 0, {}]]]}, {"name": "sppcspc.cv7.conv", "class_name": "Conv2D", "config": {"name": "sppcspc.cv7.conv", "trainable": true, "filters": 512, "kernel_size": [1, 1], "strides": [1, 1], "padding": "same", "data_format": "channels_last", "dilation_rate": [1, 1], "activation": "linear", "use_bias": false, "kernel_initializer": {"class_name": "RandomNormal", "config": {"mean": 0.0, "stddev": 0.02, "seed": null}}, "bias_initializer": {"class_name": "Zeros", "config": {}}, "kernel_regularizer": null, "bias_regularizer": null, "activity_regularizer": null, "kernel_constraint": null, "bias_constraint": null}, "inbound_nodes": [[["concatenate_9", 0, 0, {}]]]}, {"name": "sppcspc.cv7.bn", "class_name": "BatchNormalization", "config": {"name": "sppcspc.cv7.bn", "trainable": true, "axis": -1, "momentum": 0.97, "epsilon": 0.001, "center": true, "scale": true, "beta_initializer": {"class_name": "Zeros", "config": {}}, "gamma_initializer": {"class_name": "Ones", "config": {}}, "moving_mean_initializer": {"class_name": "Zeros", "config": {}}, "moving_variance_initializer": {"class_name": "Ones", "config": {}}, "beta_regularizer": null, "gamma_regularizer": null, "beta_constraint": null, "gamma_constraint": null}, "inbound_nodes": [[["sppcspc.cv7.conv", 0, 0, {}]]]}, {"name": "si_lu_48", "class_name": "SiLU", "config": {"name": "si_lu_48", "trainable": true}, "inbound_nodes": [[["sppcspc.cv7.bn", 0, 0, {}]]]}, {"name": "conv_for_P5.conv", "class_name": "Conv2D", "config": {"name": "conv_for_P5.conv", "trainable": true, "filters": 256, "kernel_size": [1, 1], "strides": [1, 1], "padding": "same", "data_format": "channels_last", "dilation_rate": [1, 1], "activation": "linear", "use_bias": false, "kernel_initializer": {"class_name": "RandomNormal", "config": {"mean": 0.0, "stddev": 0.02, "seed": null}}, "bias_initializer": {"class_name": "Zeros", "config": {}}, "kernel_regularizer": null, "bias_regularizer": null, "activity_regularizer": null, "kernel_constraint": null, "bias_constraint": null}, "inbound_nodes": [[["si_lu_48", 0, 0, {}]]]}, {"name": "conv_for_feat2.conv", "class_name": "Conv2D", "config": {"name": "conv_for_feat2.conv", "trainable": true, "filters": 256, "kernel_size": [1, 1], "strides": [1, 1], "padding": "same", "data_format": "channels_last", "dilation_rate": [1, 1], "activation": "linear", "use_bias": false, "kernel_initializer": {"class_name": "RandomNormal", "config": {"mean": 0.0, "stddev": 0.02, "seed": null}}, "bias_initializer": {"class_name": "Zeros", "config": {}}, "kernel_regularizer": null, "bias_regularizer": null, "activity_regularizer": null, "kernel_constraint": null, "bias_constraint": null}, "inbound_nodes": [[["si_lu_31", 0, 0, {}]]]}, {"name": "conv_for_P5.bn", "class_name": "BatchNormalization", "config": {"name": "conv_for_P5.bn", "trainable": true, "axis": -1, "momentum": 0.97, "epsilon": 0.001, "center": true, "scale": true, "beta_initializer": {"class_name": "Zeros", "config": {}}, "gamma_initializer": {"class_name": "Ones", "config": {}}, "moving_mean_initializer": {"class_name": "Zeros", "config": {}}, "moving_variance_initializer": {"class_name": "Ones", "config": {}}, "beta_regularizer": null, "gamma_regularizer": null, "beta_constraint": null, "gamma_constraint": null}, "inbound_nodes": [[["conv_for_P5.conv", 0, 0, {}]]]}, {"name": "conv_for_feat2.bn", "class_name": "BatchNormalization", "config": {"name": "conv_for_feat2.bn", "trainable": true, "axis": -1, "momentum": 0.97, "epsilon": 0.001, "center": true, "scale": true, "beta_initializer": {"class_name": "Zeros", "config": {}}, "gamma_initializer": {"class_name": "Ones", "config": {}}, "moving_mean_initializer": {"class_name": "Zeros", "config": {}}, "moving_variance_initializer": {"class_name": "Ones", "config": {}}, "beta_regularizer": null, "gamma_regularizer": null, "beta_constraint": null, "gamma_constraint": null}, "inbound_nodes": [[["conv_for_feat2.conv", 0, 0, {}]]]}, {"name": "si_lu_49", "class_name": "SiLU", "config": {"name": "si_lu_49", "trainable": true}, "inbound_nodes": [[["conv_for_P5.bn", 0, 0, {}]]]}, {"name": "si_lu_50", "class_name": "SiLU", "config": {"name": "si_lu_50", "trainable": true}, "inbound_nodes": [[["conv_for_feat2.bn", 0, 0, {}]]]}, {"name": "up_sampling2d_1", "class_name": "UpSampling2D", "config": {"name": "up_sampling2d_1", "trainable": true, "size": [2, 2], "data_format": "channels_last"}, "inbound_nodes": [[["si_lu_49", 0, 0, {}]]]}, {"name": "concatenate_10", "class_name": "Concatenate", "config": {"name": "concatenate_10", "trainable": true, "axis": -1}, "inbound_nodes": [[["si_lu_50", 0, 0, {}], ["up_sampling2d_1", 0, 0, {}]]]}, {"name": "conv3_for_upsample1.cv2.conv", "class_name": "Conv2D", "config": {"name": "conv3_for_upsample1.cv2.conv", "trainable": true, "filters": 256, "kernel_size": [1, 1], "strides": [1, 1], "padding": "same", "data_format": "channels_last", "dilation_rate": [1, 1], "activation": "linear", "use_bias": false, "kernel_initializer": {"class_name": "RandomNormal", "config": {"mean": 0.0, "stddev": 0.02, "seed": null}}, "bias_initializer": {"class_name": "Zeros", "config": {}}, "kernel_regularizer": null, "bias_regularizer": null, "activity_regularizer": null, "kernel_constraint": null, "bias_constraint": null}, "inbound_nodes": [[["concatenate_10", 0, 0, {}]]]}, {"name": "conv3_for_upsample1.cv2.bn", "class_name": "BatchNormalization", "config": {"name": "conv3_for_upsample1.cv2.bn", "trainable": true, "axis": -1, "momentum": 0.97, "epsilon": 0.001, "center": true, "scale": true, "beta_initializer": {"class_name": "Zeros", "config": {}}, "gamma_initializer": {"class_name": "Ones", "config": {}}, "moving_mean_initializer": {"class_name": "Zeros", "config": {}}, "moving_variance_initializer": {"class_name": "Ones", "config": {}}, "beta_regularizer": null, "gamma_regularizer": null, "beta_constraint": null, "gamma_constraint": null}, "inbound_nodes": [[["conv3_for_upsample1.cv2.conv", 0, 0, {}]]]}, {"name": "si_lu_52", "class_name": "SiLU", "config": {"name": "si_lu_52", "trainable": true}, "inbound_nodes": [[["conv3_for_upsample1.cv2.bn", 0, 0, {}]]]}, {"name": "conv3_for_upsample1.cv3.0.conv", "class_name": "Conv2D", "config": {"name": "conv3_for_upsample1.cv3.0.conv", "trainable": true, "filters": 128, "kernel_size": [3, 3], "strides": [1, 1], "padding": "same", "data_format": "channels_last", "dilation_rate": [1, 1], "activation": "linear", "use_bias": false, "kernel_initializer": {"class_name": "RandomNormal", "config": {"mean": 0.0, "stddev": 0.02, "seed": null}}, "bias_initializer": {"class_name": "Zeros", "config": {}}, "kernel_regularizer": null, "bias_regularizer": null, "activity_regularizer": null, "kernel_constraint": null, "bias_constraint": null}, "inbound_nodes": [[["si_lu_52", 0, 0, {}]]]}, {"name": "conv3_for_upsample1.cv3.0.bn", "class_name": "BatchNormalization", "config": {"name": "conv3_for_upsample1.cv3.0.bn", "trainable": true, "axis": -1, "momentum": 0.97, "epsilon": 0.001, "center": true, "scale": true, "beta_initializer": {"class_name": "Zeros", "config": {}}, "gamma_initializer": {"class_name": "Ones", "config": {}}, "moving_mean_initializer": {"class_name": "Zeros", "config": {}}, "moving_variance_initializer": {"class_name": "Ones", "config": {}}, "beta_regularizer": null, "gamma_regularizer": null, "beta_constraint": null, "gamma_constraint": null}, "inbound_nodes": [[["conv3_for_upsample1.cv3.0.conv", 0, 0, {}]]]}, {"name": "si_lu_53", "class_name": "SiLU", "config": {"name": "si_lu_53", "trainable": true}, "inbound_nodes": [[["conv3_for_upsample1.cv3.0.bn", 0, 0, {}]]]}, {"name": "conv3_for_upsample1.cv3.1.conv", "class_name": "Conv2D", "config": {"name": "conv3_for_upsample1.cv3.1.conv", "trainable": true, "filters": 128, "kernel_size": [3, 3], "strides": [1, 1], "padding": "same", "data_format": "channels_last", "dilation_rate": [1, 1], "activation": "linear", "use_bias": false, "kernel_initializer": {"class_name": "RandomNormal", "config": {"mean": 0.0, "stddev": 0.02, "seed": null}}, "bias_initializer": {"class_name": "Zeros", "config": {}}, "kernel_regularizer": null, "bias_regularizer": null, "activity_regularizer": null, "kernel_constraint": null, "bias_constraint": null}, "inbound_nodes": [[["si_lu_53", 0, 0, {}]]]}, {"name": "conv3_for_upsample1.cv3.1.bn", "class_name": "BatchNormalization", "config": {"name": "conv3_for_upsample1.cv3.1.bn", "trainable": true, "axis": -1, "momentum": 0.97, "epsilon": 0.001, "center": true, "scale": true, "beta_initializer": {"class_name": "Zeros", "config": {}}, "gamma_initializer": {"class_name": "Ones", "config": {}}, "moving_mean_initializer": {"class_name": "Zeros", "config": {}}, "moving_variance_initializer": {"class_name": "Ones", "config": {}}, "beta_regularizer": null, "gamma_regularizer": null, "beta_constraint": null, "gamma_constraint": null}, "inbound_nodes": [[["conv3_for_upsample1.cv3.1.conv", 0, 0, {}]]]}, {"name": "si_lu_54", "class_name": "SiLU", "config": {"name": "si_lu_54", "trainable": true}, "inbound_nodes": [[["conv3_for_upsample1.cv3.1.bn", 0, 0, {}]]]}, {"name": "conv3_for_upsample1.cv3.2.conv", "class_name": "Conv2D", "config": {"name": "conv3_for_upsample1.cv3.2.conv", "trainable": true, "filters": 128, "kernel_size": [3, 3], "strides": [1, 1], "padding": "same", "data_format": "channels_last", "dilation_rate": [1, 1], "activation": "linear", "use_bias": false, "kernel_initializer": {"class_name": "RandomNormal", "config": {"mean": 0.0, "stddev": 0.02, "seed": null}}, "bias_initializer": {"class_name": "Zeros", "config": {}}, "kernel_regularizer": null, "bias_regularizer": null, "activity_regularizer": null, "kernel_constraint": null, "bias_constraint": null}, "inbound_nodes": [[["si_lu_54", 0, 0, {}]]]}, {"name": "conv3_for_upsample1.cv3.2.bn", "class_name": "BatchNormalization", "config": {"name": "conv3_for_upsample1.cv3.2.bn", "trainable": true, "axis": -1, "momentum": 0.97, "epsilon": 0.001, "center": true, "scale": true, "beta_initializer": {"class_name": "Zeros", "config": {}}, "gamma_initializer": {"class_name": "Ones", "config": {}}, "moving_mean_initializer": {"class_name": "Zeros", "config": {}}, "moving_variance_initializer": {"class_name": "Ones", "config": {}}, "beta_regularizer": null, "gamma_regularizer": null, "beta_constraint": null, "gamma_constraint": null}, "inbound_nodes": [[["conv3_for_upsample1.cv3.2.conv", 0, 0, {}]]]}, {"name": "si_lu_55", "class_name": "SiLU", "config": {"name": "si_lu_55", "trainable": true}, "inbound_nodes": [[["conv3_for_upsample1.cv3.2.bn", 0, 0, {}]]]}, {"name": "conv3_for_upsample1.cv3.3.conv", "class_name": "Conv2D", "config": {"name": "conv3_for_upsample1.cv3.3.conv", "trainable": true, "filters": 128, "kernel_size": [3, 3], "strides": [1, 1], "padding": "same", "data_format": "channels_last", "dilation_rate": [1, 1], "activation": "linear", "use_bias": false, "kernel_initializer": {"class_name": "RandomNormal", "config": {"mean": 0.0, "stddev": 0.02, "seed": null}}, "bias_initializer": {"class_name": "Zeros", "config": {}}, "kernel_regularizer": null, "bias_regularizer": null, "activity_regularizer": null, "kernel_constraint": null, "bias_constraint": null}, "inbound_nodes": [[["si_lu_55", 0, 0, {}]]]}, {"name": "conv3_for_upsample1.cv1.conv", "class_name": "Conv2D", "config": {"name": "conv3_for_upsample1.cv1.conv", "trainable": true, "filters": 256, "kernel_size": [1, 1], "strides": [1, 1], "padding": "same", "data_format": "channels_last", "dilation_rate": [1, 1], "activation": "linear", "use_bias": false, "kernel_initializer": {"class_name": "RandomNormal", "config": {"mean": 0.0, "stddev": 0.02, "seed": null}}, "bias_initializer": {"class_name": "Zeros", "config": {}}, "kernel_regularizer": null, "bias_regularizer": null, "activity_regularizer": null, "kernel_constraint": null, "bias_constraint": null}, "inbound_nodes": [[["concatenate_10", 0, 0, {}]]]}, {"name": "conv3_for_upsample1.cv3.3.bn", "class_name": "BatchNormalization", "config": {"name": "conv3_for_upsample1.cv3.3.bn", "trainable": true, "axis": -1, "momentum": 0.97, "epsilon": 0.001, "center": true, "scale": true, "beta_initializer": {"class_name": "Zeros", "config": {}}, "gamma_initializer": {"class_name": "Ones", "config": {}}, "moving_mean_initializer": {"class_name": "Zeros", "config": {}}, "moving_variance_initializer": {"class_name": "Ones", "config": {}}, "beta_regularizer": null, "gamma_regularizer": null, "beta_constraint": null, "gamma_constraint": null}, "inbound_nodes": [[["conv3_for_upsample1.cv3.3.conv", 0, 0, {}]]]}, {"name": "conv3_for_upsample1.cv1.bn", "class_name": "BatchNormalization", "config": {"name": "conv3_for_upsample1.cv1.bn", "trainable": true, "axis": -1, "momentum": 0.97, "epsilon": 0.001, "center": true, "scale": true, "beta_initializer": {"class_name": "Zeros", "config": {}}, "gamma_initializer": {"class_name": "Ones", "config": {}}, "moving_mean_initializer": {"class_name": "Zeros", "config": {}}, "moving_variance_initializer": {"class_name": "Ones", "config": {}}, "beta_regularizer": null, "gamma_regularizer": null, "beta_constraint": null, "gamma_constraint": null}, "inbound_nodes": [[["conv3_for_upsample1.cv1.conv", 0, 0, {}]]]}, {"name": "si_lu_56", "class_name": "SiLU", "config": {"name": "si_lu_56", "trainable": true}, "inbound_nodes": [[["conv3_for_upsample1.cv3.3.bn", 0, 0, {}]]]}, {"name": "si_lu_51", "class_name": "SiLU", "config": {"name": "si_lu_51", "trainable": true}, "inbound_nodes": [[["conv3_for_upsample1.cv1.bn", 0, 0, {}]]]}, {"name": "concatenate_11", "class_name": "Concatenate", "config": {"name": "concatenate_11", "trainable": true, "axis": -1}, "inbound_nodes": [[["si_lu_56", 0, 0, {}], ["si_lu_55", 0, 0, {}], ["si_lu_54", 0, 0, {}], ["si_lu_53", 0, 0, {}], ["si_lu_52", 0, 0, {}], ["si_lu_51", 0, 0, {}]]]}, {"name": "conv3_for_upsample1.cv4.conv", "class_name": "Conv2D", "config": {"name": "conv3_for_upsample1.cv4.conv", "trainable": true, "filters": 256, "kernel_size": [1, 1], "strides": [1, 1], "padding": "same", "data_format": "channels_last", "dilation_rate": [1, 1], "activation": "linear", "use_bias": false, "kernel_initializer": {"class_name": "RandomNormal", "config": {"mean": 0.0, "stddev": 0.02, "seed": null}}, "bias_initializer": {"class_name": "Zeros", "config": {}}, "kernel_regularizer": null, "bias_regularizer": null, "activity_regularizer": null, "kernel_constraint": null, "bias_constraint": null}, "inbound_nodes": [[["concatenate_11", 0, 0, {}]]]}, {"name": "conv3_for_upsample1.cv4.bn", "class_name": "BatchNormalization", "config": {"name": "conv3_for_upsample1.cv4.bn", "trainable": true, "axis": -1, "momentum": 0.97, "epsilon": 0.001, "center": true, "scale": true, "beta_initializer": {"class_name": "Zeros", "config": {}}, "gamma_initializer": {"class_name": "Ones", "config": {}}, "moving_mean_initializer": {"class_name": "Zeros", "config": {}}, "moving_variance_initializer": {"class_name": "Ones", "config": {}}, "beta_regularizer": null, "gamma_regularizer": null, "beta_constraint": null, "gamma_constraint": null}, "inbound_nodes": [[["conv3_for_upsample1.cv4.conv", 0, 0, {}]]]}, {"name": "si_lu_57", "class_name": "SiLU", "config": {"name": "si_lu_57", "trainable": true}, "inbound_nodes": [[["conv3_for_upsample1.cv4.bn", 0, 0, {}]]]}, {"name": "conv_for_P4.conv", "class_name": "Conv2D", "config": {"name": "conv_for_P4.conv", "trainable": true, "filters": 128, "kernel_size": [1, 1], "strides": [1, 1], "padding": "same", "data_format": "channels_last", "dilation_rate": [1, 1], "activation": "linear", "use_bias": false, "kernel_initializer": {"class_name": "RandomNormal", "config": {"mean": 0.0, "stddev": 0.02, "seed": null}}, "bias_initializer": {"class_name": "Zeros", "config": {}}, "kernel_regularizer": null, "bias_regularizer": null, "activity_regularizer": null, "kernel_constraint": null, "bias_constraint": null}, "inbound_nodes": [[["si_lu_57", 0, 0, {}]]]}, {"name": "conv_for_feat1.conv", "class_name": "Conv2D", "config": {"name": "conv_for_feat1.conv", "trainable": true, "filters": 128, "kernel_size": [1, 1], "strides": [1, 1], "padding": "same", "data_format": "channels_last", "dilation_rate": [1, 1], "activation": "linear", "use_bias": false, "kernel_initializer": {"class_name": "RandomNormal", "config": {"mean": 0.0, "stddev": 0.02, "seed": null}}, "bias_initializer": {"class_name": "Zeros", "config": {}}, "kernel_regularizer": null, "bias_regularizer": null, "activity_regularizer": null, "kernel_constraint": null, "bias_constraint": null}, "inbound_nodes": [[["si_lu_21", 0, 0, {}]]]}, {"name": "conv_for_P4.bn", "class_name": "BatchNormalization", "config": {"name": "conv_for_P4.bn", "trainable": true, "axis": -1, "momentum": 0.97, "epsilon": 0.001, "center": true, "scale": true, "beta_initializer": {"class_name": "Zeros", "config": {}}, "gamma_initializer": {"class_name": "Ones", "config": {}}, "moving_mean_initializer": {"class_name": "Zeros", "config": {}}, "moving_variance_initializer": {"class_name": "Ones", "config": {}}, "beta_regularizer": null, "gamma_regularizer": null, "beta_constraint": null, "gamma_constraint": null}, "inbound_nodes": [[["conv_for_P4.conv", 0, 0, {}]]]}, {"name": "conv_for_feat1.bn", "class_name": "BatchNormalization", "config": {"name": "conv_for_feat1.bn", "trainable": true, "axis": -1, "momentum": 0.97, "epsilon": 0.001, "center": true, "scale": true, "beta_initializer": {"class_name": "Zeros", "config": {}}, "gamma_initializer": {"class_name": "Ones", "config": {}}, "moving_mean_initializer": {"class_name": "Zeros", "config": {}}, "moving_variance_initializer": {"class_name": "Ones", "config": {}}, "beta_regularizer": null, "gamma_regularizer": null, "beta_constraint": null, "gamma_constraint": null}, "inbound_nodes": [[["conv_for_feat1.conv", 0, 0, {}]]]}, {"name": "si_lu_58", "class_name": "SiLU", "config": {"name": "si_lu_58", "trainable": true}, "inbound_nodes": [[["conv_for_P4.bn", 0, 0, {}]]]}, {"name": "si_lu_59", "class_name": "SiLU", "config": {"name": "si_lu_59", "trainable": true}, "inbound_nodes": [[["conv_for_feat1.bn", 0, 0, {}]]]}, {"name": "up_sampling2d_2", "class_name": "UpSampling2D", "config": {"name": "up_sampling2d_2", "trainable": true, "size": [2, 2], "data_format": "channels_last"}, "inbound_nodes": [[["si_lu_58", 0, 0, {}]]]}, {"name": "concatenate_12", "class_name": "Concatenate", "config": {"name": "concatenate_12", "trainable": true, "axis": -1}, "inbound_nodes": [[["si_lu_59", 0, 0, {}], ["up_sampling2d_2", 0, 0, {}]]]}, {"name": "conv3_for_upsample2.cv2.conv", "class_name": "Conv2D", "config": {"name": "conv3_for_upsample2.cv2.conv", "trainable": true, "filters": 128, "kernel_size": [1, 1], "strides": [1, 1], "padding": "same", "data_format": "channels_last", "dilation_rate": [1, 1], "activation": "linear", "use_bias": false, "kernel_initializer": {"class_name": "RandomNormal", "config": {"mean": 0.0, "stddev": 0.02, "seed": null}}, "bias_initializer": {"class_name": "Zeros", "config": {}}, "kernel_regularizer": null, "bias_regularizer": null, "activity_regularizer": null, "kernel_constraint": null, "bias_constraint": null}, "inbound_nodes": [[["concatenate_12", 0, 0, {}]]]}, {"name": "conv3_for_upsample2.cv2.bn", "class_name": "BatchNormalization", "config": {"name": "conv3_for_upsample2.cv2.bn", "trainable": true, "axis": -1, "momentum": 0.97, "epsilon": 0.001, "center": true, "scale": true, "beta_initializer": {"class_name": "Zeros", "config": {}}, "gamma_initializer": {"class_name": "Ones", "config": {}}, "moving_mean_initializer": {"class_name": "Zeros", "config": {}}, "moving_variance_initializer": {"class_name": "Ones", "config": {}}, "beta_regularizer": null, "gamma_regularizer": null, "beta_constraint": null, "gamma_constraint": null}, "inbound_nodes": [[["conv3_for_upsample2.cv2.conv", 0, 0, {}]]]}, {"name": "si_lu_61", "class_name": "SiLU", "config": {"name": "si_lu_61", "trainable": true}, "inbound_nodes": [[["conv3_for_upsample2.cv2.bn", 0, 0, {}]]]}, {"name": "conv3_for_upsample2.cv3.0.conv", "class_name": "Conv2D", "config": {"name": "conv3_for_upsample2.cv3.0.conv", "trainable": true, "filters": 64, "kernel_size": [3, 3], "strides": [1, 1], "padding": "same", "data_format": "channels_last", "dilation_rate": [1, 1], "activation": "linear", "use_bias": false, "kernel_initializer": {"class_name": "RandomNormal", "config": {"mean": 0.0, "stddev": 0.02, "seed": null}}, "bias_initializer": {"class_name": "Zeros", "config": {}}, "kernel_regularizer": null, "bias_regularizer": null, "activity_regularizer": null, "kernel_constraint": null, "bias_constraint": null}, "inbound_nodes": [[["si_lu_61", 0, 0, {}]]]}, {"name": "conv3_for_upsample2.cv3.0.bn", "class_name": "BatchNormalization", "config": {"name": "conv3_for_upsample2.cv3.0.bn", "trainable": true, "axis": -1, "momentum": 0.97, "epsilon": 0.001, "center": true, "scale": true, "beta_initializer": {"class_name": "Zeros", "config": {}}, "gamma_initializer": {"class_name": "Ones", "config": {}}, "moving_mean_initializer": {"class_name": "Zeros", "config": {}}, "moving_variance_initializer": {"class_name": "Ones", "config": {}}, "beta_regularizer": null, "gamma_regularizer": null, "beta_constraint": null, "gamma_constraint": null}, "inbound_nodes": [[["conv3_for_upsample2.cv3.0.conv", 0, 0, {}]]]}, {"name": "si_lu_62", "class_name": "SiLU", "config": {"name": "si_lu_62", "trainable": true}, "inbound_nodes": [[["conv3_for_upsample2.cv3.0.bn", 0, 0, {}]]]}, {"name": "conv3_for_upsample2.cv3.1.conv", "class_name": "Conv2D", "config": {"name": "conv3_for_upsample2.cv3.1.conv", "trainable": true, "filters": 64, "kernel_size": [3, 3], "strides": [1, 1], "padding": "same", "data_format": "channels_last", "dilation_rate": [1, 1], "activation": "linear", "use_bias": false, "kernel_initializer": {"class_name": "RandomNormal", "config": {"mean": 0.0, "stddev": 0.02, "seed": null}}, "bias_initializer": {"class_name": "Zeros", "config": {}}, "kernel_regularizer": null, "bias_regularizer": null, "activity_regularizer": null, "kernel_constraint": null, "bias_constraint": null}, "inbound_nodes": [[["si_lu_62", 0, 0, {}]]]}, {"name": "conv3_for_upsample2.cv3.1.bn", "class_name": "BatchNormalization", "config": {"name": "conv3_for_upsample2.cv3.1.bn", "trainable": true, "axis": -1, "momentum": 0.97, "epsilon": 0.001, "center": true, "scale": true, "beta_initializer": {"class_name": "Zeros", "config": {}}, "gamma_initializer": {"class_name": "Ones", "config": {}}, "moving_mean_initializer": {"class_name": "Zeros", "config": {}}, "moving_variance_initializer": {"class_name": "Ones", "config": {}}, "beta_regularizer": null, "gamma_regularizer": null, "beta_constraint": null, "gamma_constraint": null}, "inbound_nodes": [[["conv3_for_upsample2.cv3.1.conv", 0, 0, {}]]]}, {"name": "si_lu_63", "class_name": "SiLU", "config": {"name": "si_lu_63", "trainable": true}, "inbound_nodes": [[["conv3_for_upsample2.cv3.1.bn", 0, 0, {}]]]}, {"name": "conv3_for_upsample2.cv3.2.conv", "class_name": "Conv2D", "config": {"name": "conv3_for_upsample2.cv3.2.conv", "trainable": true, "filters": 64, "kernel_size": [3, 3], "strides": [1, 1], "padding": "same", "data_format": "channels_last", "dilation_rate": [1, 1], "activation": "linear", "use_bias": false, "kernel_initializer": {"class_name": "RandomNormal", "config": {"mean": 0.0, "stddev": 0.02, "seed": null}}, "bias_initializer": {"class_name": "Zeros", "config": {}}, "kernel_regularizer": null, "bias_regularizer": null, "activity_regularizer": null, "kernel_constraint": null, "bias_constraint": null}, "inbound_nodes": [[["si_lu_63", 0, 0, {}]]]}, {"name": "conv3_for_upsample2.cv3.2.bn", "class_name": "BatchNormalization", "config": {"name": "conv3_for_upsample2.cv3.2.bn", "trainable": true, "axis": -1, "momentum": 0.97, "epsilon": 0.001, "center": true, "scale": true, "beta_initializer": {"class_name": "Zeros", "config": {}}, "gamma_initializer": {"class_name": "Ones", "config": {}}, "moving_mean_initializer": {"class_name": "Zeros", "config": {}}, "moving_variance_initializer": {"class_name": "Ones", "config": {}}, "beta_regularizer": null, "gamma_regularizer": null, "beta_constraint": null, "gamma_constraint": null}, "inbound_nodes": [[["conv3_for_upsample2.cv3.2.conv", 0, 0, {}]]]}, {"name": "si_lu_64", "class_name": "SiLU", "config": {"name": "si_lu_64", "trainable": true}, "inbound_nodes": [[["conv3_for_upsample2.cv3.2.bn", 0, 0, {}]]]}, {"name": "conv3_for_upsample2.cv3.3.conv", "class_name": "Conv2D", "config": {"name": "conv3_for_upsample2.cv3.3.conv", "trainable": true, "filters": 64, "kernel_size": [3, 3], "strides": [1, 1], "padding": "same", "data_format": "channels_last", "dilation_rate": [1, 1], "activation": "linear", "use_bias": false, "kernel_initializer": {"class_name": "RandomNormal", "config": {"mean": 0.0, "stddev": 0.02, "seed": null}}, "bias_initializer": {"class_name": "Zeros", "config": {}}, "kernel_regularizer": null, "bias_regularizer": null, "activity_regularizer": null, "kernel_constraint": null, "bias_constraint": null}, "inbound_nodes": [[["si_lu_64", 0, 0, {}]]]}, {"name": "conv3_for_upsample2.cv1.conv", "class_name": "Conv2D", "config": {"name": "conv3_for_upsample2.cv1.conv", "trainable": true, "filters": 128, "kernel_size": [1, 1], "strides": [1, 1], "padding": "same", "data_format": "channels_last", "dilation_rate": [1, 1], "activation": "linear", "use_bias": false, "kernel_initializer": {"class_name": "RandomNormal", "config": {"mean": 0.0, "stddev": 0.02, "seed": null}}, "bias_initializer": {"class_name": "Zeros", "config": {}}, "kernel_regularizer": null, "bias_regularizer": null, "activity_regularizer": null, "kernel_constraint": null, "bias_constraint": null}, "inbound_nodes": [[["concatenate_12", 0, 0, {}]]]}, {"name": "conv3_for_upsample2.cv3.3.bn", "class_name": "BatchNormalization", "config": {"name": "conv3_for_upsample2.cv3.3.bn", "trainable": true, "axis": -1, "momentum": 0.97, "epsilon": 0.001, "center": true, "scale": true, "beta_initializer": {"class_name": "Zeros", "config": {}}, "gamma_initializer": {"class_name": "Ones", "config": {}}, "moving_mean_initializer": {"class_name": "Zeros", "config": {}}, "moving_variance_initializer": {"class_name": "Ones", "config": {}}, "beta_regularizer": null, "gamma_regularizer": null, "beta_constraint": null, "gamma_constraint": null}, "inbound_nodes": [[["conv3_for_upsample2.cv3.3.conv", 0, 0, {}]]]}, {"name": "conv3_for_upsample2.cv1.bn", "class_name": "BatchNormalization", "config": {"name": "conv3_for_upsample2.cv1.bn", "trainable": true, "axis": -1, "momentum": 0.97, "epsilon": 0.001, "center": true, "scale": true, "beta_initializer": {"class_name": "Zeros", "config": {}}, "gamma_initializer": {"class_name": "Ones", "config": {}}, "moving_mean_initializer": {"class_name": "Zeros", "config": {}}, "moving_variance_initializer": {"class_name": "Ones", "config": {}}, "beta_regularizer": null, "gamma_regularizer": null, "beta_constraint": null, "gamma_constraint": null}, "inbound_nodes": [[["conv3_for_upsample2.cv1.conv", 0, 0, {}]]]}, {"name": "si_lu_65", "class_name": "SiLU", "config": {"name": "si_lu_65", "trainable": true}, "inbound_nodes": [[["conv3_for_upsample2.cv3.3.bn", 0, 0, {}]]]}, {"name": "si_lu_60", "class_name": "SiLU", "config": {"name": "si_lu_60", "trainable": true}, "inbound_nodes": [[["conv3_for_upsample2.cv1.bn", 0, 0, {}]]]}, {"name": "concatenate_13", "class_name": "Concatenate", "config": {"name": "concatenate_13", "trainable": true, "axis": -1}, "inbound_nodes": [[["si_lu_65", 0, 0, {}], ["si_lu_64", 0, 0, {}], ["si_lu_63", 0, 0, {}], ["si_lu_62", 0, 0, {}], ["si_lu_61", 0, 0, {}], ["si_lu_60", 0, 0, {}]]]}, {"name": "conv3_for_upsample2.cv4.conv", "class_name": "Conv2D", "config": {"name": "conv3_for_upsample2.cv4.conv", "trainable": true, "filters": 128, "kernel_size": [1, 1], "strides": [1, 1], "padding": "same", "data_format": "channels_last", "dilation_rate": [1, 1], "activation": "linear", "use_bias": false, "kernel_initializer": {"class_name": "RandomNormal", "config": {"mean": 0.0, "stddev": 0.02, "seed": null}}, "bias_initializer": {"class_name": "Zeros", "config": {}}, "kernel_regularizer": null, "bias_regularizer": null, "activity_regularizer": null, "kernel_constraint": null, "bias_constraint": null}, "inbound_nodes": [[["concatenate_13", 0, 0, {}]]]}, {"name": "conv3_for_upsample2.cv4.bn", "class_name": "BatchNormalization", "config": {"name": "conv3_for_upsample2.cv4.bn", "trainable": true, "axis": -1, "momentum": 0.97, "epsilon": 0.001, "center": true, "scale": true, "beta_initializer": {"class_name": "Zeros", "config": {}}, "gamma_initializer": {"class_name": "Ones", "config": {}}, "moving_mean_initializer": {"class_name": "Zeros", "config": {}}, "moving_variance_initializer": {"class_name": "Ones", "config": {}}, "beta_regularizer": null, "gamma_regularizer": null, "beta_constraint": null, "gamma_constraint": null}, "inbound_nodes": [[["conv3_for_upsample2.cv4.conv", 0, 0, {}]]]}, {"name": "si_lu_66", "class_name": "SiLU", "config": {"name": "si_lu_66", "trainable": true}, "inbound_nodes": [[["conv3_for_upsample2.cv4.bn", 0, 0, {}]]]}, {"name": "down_sample1.cv2.conv", "class_name": "Conv2D", "config": {"name": "down_sample1.cv2.conv", "trainable": true, "filters": 128, "kernel_size": [1, 1], "strides": [1, 1], "padding": "same", "data_format": "channels_last", "dilation_rate": [1, 1], "activation": "linear", "use_bias": false, "kernel_initializer": {"class_name": "RandomNormal", "config": {"mean": 0.0, "stddev": 0.02, "seed": null}}, "bias_initializer": {"class_name": "Zeros", "config": {}}, "kernel_regularizer": null, "bias_regularizer": null, "activity_regularizer": null, "kernel_constraint": null, "bias_constraint": null}, "inbound_nodes": [[["si_lu_66", 0, 0, {}]]]}, {"name": "down_sample1.cv2.bn", "class_name": "BatchNormalization", "config": {"name": "down_sample1.cv2.bn", "trainable": true, "axis": -1, "momentum": 0.97, "epsilon": 0.001, "center": true, "scale": true, "beta_initializer": {"class_name": "Zeros", "config": {}}, "gamma_initializer": {"class_name": "Ones", "config": {}}, "moving_mean_initializer": {"class_name": "Zeros", "config": {}}, "moving_variance_initializer": {"class_name": "Ones", "config": {}}, "beta_regularizer": null, "gamma_regularizer": null, "beta_constraint": null, "gamma_constraint": null}, "inbound_nodes": [[["down_sample1.cv2.conv", 0, 0, {}]]]}, {"name": "si_lu_68", "class_name": "SiLU", "config": {"name": "si_lu_68", "trainable": true}, "inbound_nodes": [[["down_sample1.cv2.bn", 0, 0, {}]]]}, {"name": "zero_padding2d_6", "class_name": "ZeroPadding2D", "config": {"name": "zero_padding2d_6", "trainable": true, "padding": [[1, 1], [1, 1]], "data_format": "channels_last"}, "inbound_nodes": [[["si_lu_68", 0, 0, {}]]]}, {"name": "max_pooling2d_7", "class_name": "MaxPooling2D", "config": {"name": "max_pooling2d_7", "trainable": true, "pool_size": [2, 2], "padding": "valid", "strides": [2, 2], "data_format": "channels_last"}, "inbound_nodes": [[["si_lu_66", 0, 0, {}]]]}, {"name": "down_sample1.cv3.conv", "class_name": "Conv2D", "config": {"name": "down_sample1.cv3.conv", "trainable": true, "filters": 128, "kernel_size": [3, 3], "strides": [2, 2], "padding": "valid", "data_format": "channels_last", "dilation_rate": [1, 1], "activation": "linear", "use_bias": false, "kernel_initializer": {"class_name": "RandomNormal", "config": {"mean": 0.0, "stddev": 0.02, "seed": null}}, "bias_initializer": {"class_name": "Zeros", "config": {}}, "kernel_regularizer": null, "bias_regularizer": null, "activity_regularizer": null, "kernel_constraint": null, "bias_constraint": null}, "inbound_nodes": [[["zero_padding2d_6", 0, 0, {}]]]}, {"name": "down_sample1.cv1.conv", "class_name": "Conv2D", "config": {"name": "down_sample1.cv1.conv", "trainable": true, "filters": 128, "kernel_size": [1, 1], "strides": [1, 1], "padding": "same", "data_format": "channels_last", "dilation_rate": [1, 1], "activation": "linear", "use_bias": false, "kernel_initializer": {"class_name": "RandomNormal", "config": {"mean": 0.0, "stddev": 0.02, "seed": null}}, "bias_initializer": {"class_name": "Zeros", "config": {}}, "kernel_regularizer": null, "bias_regularizer": null, "activity_regularizer": null, "kernel_constraint": null, "bias_constraint": null}, "inbound_nodes": [[["max_pooling2d_7", 0, 0, {}]]]}, {"name": "down_sample1.cv3.bn", "class_name": "BatchNormalization", "config": {"name": "down_sample1.cv3.bn", "trainable": true, "axis": -1, "momentum": 0.97, "epsilon": 0.001, "center": true, "scale": true, "beta_initializer": {"class_name": "Zeros", "config": {}}, "gamma_initializer": {"class_name": "Ones", "config": {}}, "moving_mean_initializer": {"class_name": "Zeros", "config": {}}, "moving_variance_initializer": {"class_name": "Ones", "config": {}}, "beta_regularizer": null, "gamma_regularizer": null, "beta_constraint": null, "gamma_constraint": null}, "inbound_nodes": [[["down_sample1.cv3.conv", 0, 0, {}]]]}, {"name": "down_sample1.cv1.bn", "class_name": "BatchNormalization", "config": {"name": "down_sample1.cv1.bn", "trainable": true, "axis": -1, "momentum": 0.97, "epsilon": 0.001, "center": true, "scale": true, "beta_initializer": {"class_name": "Zeros", "config": {}}, "gamma_initializer": {"class_name": "Ones", "config": {}}, "moving_mean_initializer": {"class_name": "Zeros", "config": {}}, "moving_variance_initializer": {"class_name": "Ones", "config": {}}, "beta_regularizer": null, "gamma_regularizer": null, "beta_constraint": null, "gamma_constraint": null}, "inbound_nodes": [[["down_sample1.cv1.conv", 0, 0, {}]]]}, {"name": "si_lu_69", "class_name": "SiLU", "config": {"name": "si_lu_69", "trainable": true}, "inbound_nodes": [[["down_sample1.cv3.bn", 0, 0, {}]]]}, {"name": "si_lu_67", "class_name": "SiLU", "config": {"name": "si_lu_67", "trainable": true}, "inbound_nodes": [[["down_sample1.cv1.bn", 0, 0, {}]]]}, {"name": "concatenate_14", "class_name": "Concatenate", "config": {"name": "concatenate_14", "trainable": true, "axis": -1}, "inbound_nodes": [[["si_lu_69", 0, 0, {}], ["si_lu_67", 0, 0, {}]]]}, {"name": "concatenate_15", "class_name": "Concatenate", "config": {"name": "concatenate_15", "trainable": true, "axis": -1}, "inbound_nodes": [[["concatenate_14", 0, 0, {}], ["si_lu_57", 0, 0, {}]]]}, {"name": "conv3_for_downsample1.cv2.conv", "class_name": "Conv2D", "config": {"name": "conv3_for_downsample1.cv2.conv", "trainable": true, "filters": 256, "kernel_size": [1, 1], "strides": [1, 1], "padding": "same", "data_format": "channels_last", "dilation_rate": [1, 1], "activation": "linear", "use_bias": false, "kernel_initializer": {"class_name": "RandomNormal", "config": {"mean": 0.0, "stddev": 0.02, "seed": null}}, "bias_initializer": {"class_name": "Zeros", "config": {}}, "kernel_regularizer": null, "bias_regularizer": null, "activity_regularizer": null, "kernel_constraint": null, "bias_constraint": null}, "inbound_nodes": [[["concatenate_15", 0, 0, {}]]]}, {"name": "conv3_for_downsample1.cv2.bn", "class_name": "BatchNormalization", "config": {"name": "conv3_for_downsample1.cv2.bn", "trainable": true, "axis": -1, "momentum": 0.97, "epsilon": 0.001, "center": true, "scale": true, "beta_initializer": {"class_name": "Zeros", "config": {}}, "gamma_initializer": {"class_name": "Ones", "config": {}}, "moving_mean_initializer": {"class_name": "Zeros", "config": {}}, "moving_variance_initializer": {"class_name": "Ones", "config": {}}, "beta_regularizer": null, "gamma_regularizer": null, "beta_constraint": null, "gamma_constraint": null}, "inbound_nodes": [[["conv3_for_downsample1.cv2.conv", 0, 0, {}]]]}, {"name": "si_lu_71", "class_name": "SiLU", "config": {"name": "si_lu_71", "trainable": true}, "inbound_nodes": [[["conv3_for_downsample1.cv2.bn", 0, 0, {}]]]}, {"name": "conv3_for_downsample1.cv3.0.conv", "class_name": "Conv2D", "config": {"name": "conv3_for_downsample1.cv3.0.conv", "trainable": true, "filters": 128, "kernel_size": [3, 3], "strides": [1, 1], "padding": "same", "data_format": "channels_last", "dilation_rate": [1, 1], "activation": "linear", "use_bias": false, "kernel_initializer": {"class_name": "RandomNormal", "config": {"mean": 0.0, "stddev": 0.02, "seed": null}}, "bias_initializer": {"class_name": "Zeros", "config": {}}, "kernel_regularizer": null, "bias_regularizer": null, "activity_regularizer": null, "kernel_constraint": null, "bias_constraint": null}, "inbound_nodes": [[["si_lu_71", 0, 0, {}]]]}, {"name": "conv3_for_downsample1.cv3.0.bn", "class_name": "BatchNormalization", "config": {"name": "conv3_for_downsample1.cv3.0.bn", "trainable": true, "axis": -1, "momentum": 0.97, "epsilon": 0.001, "center": true, "scale": true, "beta_initializer": {"class_name": "Zeros", "config": {}}, "gamma_initializer": {"class_name": "Ones", "config": {}}, "moving_mean_initializer": {"class_name": "Zeros", "config": {}}, "moving_variance_initializer": {"class_name": "Ones", "config": {}}, "beta_regularizer": null, "gamma_regularizer": null, "beta_constraint": null, "gamma_constraint": null}, "inbound_nodes": [[["conv3_for_downsample1.cv3.0.conv", 0, 0, {}]]]}, {"name": "si_lu_72", "class_name": "SiLU", "config": {"name": "si_lu_72", "trainable": true}, "inbound_nodes": [[["conv3_for_downsample1.cv3.0.bn", 0, 0, {}]]]}, {"name": "conv3_for_downsample1.cv3.1.conv", "class_name": "Conv2D", "config": {"name": "conv3_for_downsample1.cv3.1.conv", "trainable": true, "filters": 128, "kernel_size": [3, 3], "strides": [1, 1], "padding": "same", "data_format": "channels_last", "dilation_rate": [1, 1], "activation": "linear", "use_bias": false, "kernel_initializer": {"class_name": "RandomNormal", "config": {"mean": 0.0, "stddev": 0.02, "seed": null}}, "bias_initializer": {"class_name": "Zeros", "config": {}}, "kernel_regularizer": null, "bias_regularizer": null, "activity_regularizer": null, "kernel_constraint": null, "bias_constraint": null}, "inbound_nodes": [[["si_lu_72", 0, 0, {}]]]}, {"name": "conv3_for_downsample1.cv3.1.bn", "class_name": "BatchNormalization", "config": {"name": "conv3_for_downsample1.cv3.1.bn", "trainable": true, "axis": -1, "momentum": 0.97, "epsilon": 0.001, "center": true, "scale": true, "beta_initializer": {"class_name": "Zeros", "config": {}}, "gamma_initializer": {"class_name": "Ones", "config": {}}, "moving_mean_initializer": {"class_name": "Zeros", "config": {}}, "moving_variance_initializer": {"class_name": "Ones", "config": {}}, "beta_regularizer": null, "gamma_regularizer": null, "beta_constraint": null, "gamma_constraint": null}, "inbound_nodes": [[["conv3_for_downsample1.cv3.1.conv", 0, 0, {}]]]}, {"name": "si_lu_73", "class_name": "SiLU", "config": {"name": "si_lu_73", "trainable": true}, "inbound_nodes": [[["conv3_for_downsample1.cv3.1.bn", 0, 0, {}]]]}, {"name": "conv3_for_downsample1.cv3.2.conv", "class_name": "Conv2D", "config": {"name": "conv3_for_downsample1.cv3.2.conv", "trainable": true, "filters": 128, "kernel_size": [3, 3], "strides": [1, 1], "padding": "same", "data_format": "channels_last", "dilation_rate": [1, 1], "activation": "linear", "use_bias": false, "kernel_initializer": {"class_name": "RandomNormal", "config": {"mean": 0.0, "stddev": 0.02, "seed": null}}, "bias_initializer": {"class_name": "Zeros", "config": {}}, "kernel_regularizer": null, "bias_regularizer": null, "activity_regularizer": null, "kernel_constraint": null, "bias_constraint": null}, "inbound_nodes": [[["si_lu_73", 0, 0, {}]]]}, {"name": "conv3_for_downsample1.cv3.2.bn", "class_name": "BatchNormalization", "config": {"name": "conv3_for_downsample1.cv3.2.bn", "trainable": true, "axis": -1, "momentum": 0.97, "epsilon": 0.001, "center": true, "scale": true, "beta_initializer": {"class_name": "Zeros", "config": {}}, "gamma_initializer": {"class_name": "Ones", "config": {}}, "moving_mean_initializer": {"class_name": "Zeros", "config": {}}, "moving_variance_initializer": {"class_name": "Ones", "config": {}}, "beta_regularizer": null, "gamma_regularizer": null, "beta_constraint": null, "gamma_constraint": null}, "inbound_nodes": [[["conv3_for_downsample1.cv3.2.conv", 0, 0, {}]]]}, {"name": "si_lu_74", "class_name": "SiLU", "config": {"name": "si_lu_74", "trainable": true}, "inbound_nodes": [[["conv3_for_downsample1.cv3.2.bn", 0, 0, {}]]]}, {"name": "conv3_for_downsample1.cv3.3.conv", "class_name": "Conv2D", "config": {"name": "conv3_for_downsample1.cv3.3.conv", "trainable": true, "filters": 128, "kernel_size": [3, 3], "strides": [1, 1], "padding": "same", "data_format": "channels_last", "dilation_rate": [1, 1], "activation": "linear", "use_bias": false, "kernel_initializer": {"class_name": "RandomNormal", "config": {"mean": 0.0, "stddev": 0.02, "seed": null}}, "bias_initializer": {"class_name": "Zeros", "config": {}}, "kernel_regularizer": null, "bias_regularizer": null, "activity_regularizer": null, "kernel_constraint": null, "bias_constraint": null}, "inbound_nodes": [[["si_lu_74", 0, 0, {}]]]}, {"name": "conv3_for_downsample1.cv1.conv", "class_name": "Conv2D", "config": {"name": "conv3_for_downsample1.cv1.conv", "trainable": true, "filters": 256, "kernel_size": [1, 1], "strides": [1, 1], "padding": "same", "data_format": "channels_last", "dilation_rate": [1, 1], "activation": "linear", "use_bias": false, "kernel_initializer": {"class_name": "RandomNormal", "config": {"mean": 0.0, "stddev": 0.02, "seed": null}}, "bias_initializer": {"class_name": "Zeros", "config": {}}, "kernel_regularizer": null, "bias_regularizer": null, "activity_regularizer": null, "kernel_constraint": null, "bias_constraint": null}, "inbound_nodes": [[["concatenate_15", 0, 0, {}]]]}, {"name": "conv3_for_downsample1.cv3.3.bn", "class_name": "BatchNormalization", "config": {"name": "conv3_for_downsample1.cv3.3.bn", "trainable": true, "axis": -1, "momentum": 0.97, "epsilon": 0.001, "center": true, "scale": true, "beta_initializer": {"class_name": "Zeros", "config": {}}, "gamma_initializer": {"class_name": "Ones", "config": {}}, "moving_mean_initializer": {"class_name": "Zeros", "config": {}}, "moving_variance_initializer": {"class_name": "Ones", "config": {}}, "beta_regularizer": null, "gamma_regularizer": null, "beta_constraint": null, "gamma_constraint": null}, "inbound_nodes": [[["conv3_for_downsample1.cv3.3.conv", 0, 0, {}]]]}, {"name": "conv3_for_downsample1.cv1.bn", "class_name": "BatchNormalization", "config": {"name": "conv3_for_downsample1.cv1.bn", "trainable": true, "axis": -1, "momentum": 0.97, "epsilon": 0.001, "center": true, "scale": true, "beta_initializer": {"class_name": "Zeros", "config": {}}, "gamma_initializer": {"class_name": "Ones", "config": {}}, "moving_mean_initializer": {"class_name": "Zeros", "config": {}}, "moving_variance_initializer": {"class_name": "Ones", "config": {}}, "beta_regularizer": null, "gamma_regularizer": null, "beta_constraint": null, "gamma_constraint": null}, "inbound_nodes": [[["conv3_for_downsample1.cv1.conv", 0, 0, {}]]]}, {"name": "si_lu_75", "class_name": "SiLU", "config": {"name": "si_lu_75", "trainable": true}, "inbound_nodes": [[["conv3_for_downsample1.cv3.3.bn", 0, 0, {}]]]}, {"name": "si_lu_70", "class_name": "SiLU", "config": {"name": "si_lu_70", "trainable": true}, "inbound_nodes": [[["conv3_for_downsample1.cv1.bn", 0, 0, {}]]]}, {"name": "concatenate_16", "class_name": "Concatenate", "config": {"name": "concatenate_16", "trainable": true, "axis": -1}, "inbound_nodes": [[["si_lu_75", 0, 0, {}], ["si_lu_74", 0, 0, {}], ["si_lu_73", 0, 0, {}], ["si_lu_72", 0, 0, {}], ["si_lu_71", 0, 0, {}], ["si_lu_70", 0, 0, {}]]]}, {"name": "conv3_for_downsample1.cv4.conv", "class_name": "Conv2D", "config": {"name": "conv3_for_downsample1.cv4.conv", "trainable": true, "filters": 256, "kernel_size": [1, 1], "strides": [1, 1], "padding": "same", "data_format": "channels_last", "dilation_rate": [1, 1], "activation": "linear", "use_bias": false, "kernel_initializer": {"class_name": "RandomNormal", "config": {"mean": 0.0, "stddev": 0.02, "seed": null}}, "bias_initializer": {"class_name": "Zeros", "config": {}}, "kernel_regularizer": null, "bias_regularizer": null, "activity_regularizer": null, "kernel_constraint": null, "bias_constraint": null}, "inbound_nodes": [[["concatenate_16", 0, 0, {}]]]}, {"name": "conv3_for_downsample1.cv4.bn", "class_name": "BatchNormalization", "config": {"name": "conv3_for_downsample1.cv4.bn", "trainable": true, "axis": -1, "momentum": 0.97, "epsilon": 0.001, "center": true, "scale": true, "beta_initializer": {"class_name": "Zeros", "config": {}}, "gamma_initializer": {"class_name": "Ones", "config": {}}, "moving_mean_initializer": {"class_name": "Zeros", "config": {}}, "moving_variance_initializer": {"class_name": "Ones", "config": {}}, "beta_regularizer": null, "gamma_regularizer": null, "beta_constraint": null, "gamma_constraint": null}, "inbound_nodes": [[["conv3_for_downsample1.cv4.conv", 0, 0, {}]]]}, {"name": "si_lu_76", "class_name": "SiLU", "config": {"name": "si_lu_76", "trainable": true}, "inbound_nodes": [[["conv3_for_downsample1.cv4.bn", 0, 0, {}]]]}, {"name": "down_sample2.cv2.conv", "class_name": "Conv2D", "config": {"name": "down_sample2.cv2.conv", "trainable": true, "filters": 256, "kernel_size": [1, 1], "strides": [1, 1], "padding": "same", "data_format": "channels_last", "dilation_rate": [1, 1], "activation": "linear", "use_bias": false, "kernel_initializer": {"class_name": "RandomNormal", "config": {"mean": 0.0, "stddev": 0.02, "seed": null}}, "bias_initializer": {"class_name": "Zeros", "config": {}}, "kernel_regularizer": null, "bias_regularizer": null, "activity_regularizer": null, "kernel_constraint": null, "bias_constraint": null}, "inbound_nodes": [[["si_lu_76", 0, 0, {}]]]}, {"name": "down_sample2.cv2.bn", "class_name": "BatchNormalization", "config": {"name": "down_sample2.cv2.bn", "trainable": true, "axis": -1, "momentum": 0.97, "epsilon": 0.001, "center": true, "scale": true, "beta_initializer": {"class_name": "Zeros", "config": {}}, "gamma_initializer": {"class_name": "Ones", "config": {}}, "moving_mean_initializer": {"class_name": "Zeros", "config": {}}, "moving_variance_initializer": {"class_name": "Ones", "config": {}}, "beta_regularizer": null, "gamma_regularizer": null, "beta_constraint": null, "gamma_constraint": null}, "inbound_nodes": [[["down_sample2.cv2.conv", 0, 0, {}]]]}, {"name": "si_lu_78", "class_name": "SiLU", "config": {"name": "si_lu_78", "trainable": true}, "inbound_nodes": [[["down_sample2.cv2.bn", 0, 0, {}]]]}, {"name": "zero_padding2d_7", "class_name": "ZeroPadding2D", "config": {"name": "zero_padding2d_7", "trainable": true, "padding": [[1, 1], [1, 1]], "data_format": "channels_last"}, "inbound_nodes": [[["si_lu_78", 0, 0, {}]]]}, {"name": "max_pooling2d_8", "class_name": "MaxPooling2D", "config": {"name": "max_pooling2d_8", "trainable": true, "pool_size": [2, 2], "padding": "valid", "strides": [2, 2], "data_format": "channels_last"}, "inbound_nodes": [[["si_lu_76", 0, 0, {}]]]}, {"name": "down_sample2.cv3.conv", "class_name": "Conv2D", "config": {"name": "down_sample2.cv3.conv", "trainable": true, "filters": 256, "kernel_size": [3, 3], "strides": [2, 2], "padding": "valid", "data_format": "channels_last", "dilation_rate": [1, 1], "activation": "linear", "use_bias": false, "kernel_initializer": {"class_name": "RandomNormal", "config": {"mean": 0.0, "stddev": 0.02, "seed": null}}, "bias_initializer": {"class_name": "Zeros", "config": {}}, "kernel_regularizer": null, "bias_regularizer": null, "activity_regularizer": null, "kernel_constraint": null, "bias_constraint": null}, "inbound_nodes": [[["zero_padding2d_7", 0, 0, {}]]]}, {"name": "down_sample2.cv1.conv", "class_name": "Conv2D", "config": {"name": "down_sample2.cv1.conv", "trainable": true, "filters": 256, "kernel_size": [1, 1], "strides": [1, 1], "padding": "same", "data_format": "channels_last", "dilation_rate": [1, 1], "activation": "linear", "use_bias": false, "kernel_initializer": {"class_name": "RandomNormal", "config": {"mean": 0.0, "stddev": 0.02, "seed": null}}, "bias_initializer": {"class_name": "Zeros", "config": {}}, "kernel_regularizer": null, "bias_regularizer": null, "activity_regularizer": null, "kernel_constraint": null, "bias_constraint": null}, "inbound_nodes": [[["max_pooling2d_8", 0, 0, {}]]]}, {"name": "down_sample2.cv3.bn", "class_name": "BatchNormalization", "config": {"name": "down_sample2.cv3.bn", "trainable": true, "axis": -1, "momentum": 0.97, "epsilon": 0.001, "center": true, "scale": true, "beta_initializer": {"class_name": "Zeros", "config": {}}, "gamma_initializer": {"class_name": "Ones", "config": {}}, "moving_mean_initializer": {"class_name": "Zeros", "config": {}}, "moving_variance_initializer": {"class_name": "Ones", "config": {}}, "beta_regularizer": null, "gamma_regularizer": null, "beta_constraint": null, "gamma_constraint": null}, "inbound_nodes": [[["down_sample2.cv3.conv", 0, 0, {}]]]}, {"name": "down_sample2.cv1.bn", "class_name": "BatchNormalization", "config": {"name": "down_sample2.cv1.bn", "trainable": true, "axis": -1, "momentum": 0.97, "epsilon": 0.001, "center": true, "scale": true, "beta_initializer": {"class_name": "Zeros", "config": {}}, "gamma_initializer": {"class_name": "Ones", "config": {}}, "moving_mean_initializer": {"class_name": "Zeros", "config": {}}, "moving_variance_initializer": {"class_name": "Ones", "config": {}}, "beta_regularizer": null, "gamma_regularizer": null, "beta_constraint": null, "gamma_constraint": null}, "inbound_nodes": [[["down_sample2.cv1.conv", 0, 0, {}]]]}, {"name": "si_lu_79", "class_name": "SiLU", "config": {"name": "si_lu_79", "trainable": true}, "inbound_nodes": [[["down_sample2.cv3.bn", 0, 0, {}]]]}, {"name": "si_lu_77", "class_name": "SiLU", "config": {"name": "si_lu_77", "trainable": true}, "inbound_nodes": [[["down_sample2.cv1.bn", 0, 0, {}]]]}, {"name": "concatenate_17", "class_name": "Concatenate", "config": {"name": "concatenate_17", "trainable": true, "axis": -1}, "inbound_nodes": [[["si_lu_79", 0, 0, {}], ["si_lu_77", 0, 0, {}]]]}, {"name": "concatenate_18", "class_name": "Concatenate", "config": {"name": "concatenate_18", "trainable": true, "axis": -1}, "inbound_nodes": [[["concatenate_17", 0, 0, {}], ["si_lu_48", 0, 0, {}]]]}, {"name": "conv3_for_downsample2.cv2.conv", "class_name": "Conv2D", "config": {"name": "conv3_for_downsample2.cv2.conv", "trainable": true, "filters": 512, "kernel_size": [1, 1], "strides": [1, 1], "padding": "same", "data_format": "channels_last", "dilation_rate": [1, 1], "activation": "linear", "use_bias": false, "kernel_initializer": {"class_name": "RandomNormal", "config": {"mean": 0.0, "stddev": 0.02, "seed": null}}, "bias_initializer": {"class_name": "Zeros", "config": {}}, "kernel_regularizer": null, "bias_regularizer": null, "activity_regularizer": null, "kernel_constraint": null, "bias_constraint": null}, "inbound_nodes": [[["concatenate_18", 0, 0, {}]]]}, {"name": "conv3_for_downsample2.cv2.bn", "class_name": "BatchNormalization", "config": {"name": "conv3_for_downsample2.cv2.bn", "trainable": true, "axis": -1, "momentum": 0.97, "epsilon": 0.001, "center": true, "scale": true, "beta_initializer": {"class_name": "Zeros", "config": {}}, "gamma_initializer": {"class_name": "Ones", "config": {}}, "moving_mean_initializer": {"class_name": "Zeros", "config": {}}, "moving_variance_initializer": {"class_name": "Ones", "config": {}}, "beta_regularizer": null, "gamma_regularizer": null, "beta_constraint": null, "gamma_constraint": null}, "inbound_nodes": [[["conv3_for_downsample2.cv2.conv", 0, 0, {}]]]}, {"name": "si_lu_81", "class_name": "SiLU", "config": {"name": "si_lu_81", "trainable": true}, "inbound_nodes": [[["conv3_for_downsample2.cv2.bn", 0, 0, {}]]]}, {"name": "conv3_for_downsample2.cv3.0.conv", "class_name": "Conv2D", "config": {"name": "conv3_for_downsample2.cv3.0.conv", "trainable": true, "filters": 256, "kernel_size": [3, 3], "strides": [1, 1], "padding": "same", "data_format": "channels_last", "dilation_rate": [1, 1], "activation": "linear", "use_bias": false, "kernel_initializer": {"class_name": "RandomNormal", "config": {"mean": 0.0, "stddev": 0.02, "seed": null}}, "bias_initializer": {"class_name": "Zeros", "config": {}}, "kernel_regularizer": null, "bias_regularizer": null, "activity_regularizer": null, "kernel_constraint": null, "bias_constraint": null}, "inbound_nodes": [[["si_lu_81", 0, 0, {}]]]}, {"name": "conv3_for_downsample2.cv3.0.bn", "class_name": "BatchNormalization", "config": {"name": "conv3_for_downsample2.cv3.0.bn", "trainable": true, "axis": -1, "momentum": 0.97, "epsilon": 0.001, "center": true, "scale": true, "beta_initializer": {"class_name": "Zeros", "config": {}}, "gamma_initializer": {"class_name": "Ones", "config": {}}, "moving_mean_initializer": {"class_name": "Zeros", "config": {}}, "moving_variance_initializer": {"class_name": "Ones", "config": {}}, "beta_regularizer": null, "gamma_regularizer": null, "beta_constraint": null, "gamma_constraint": null}, "inbound_nodes": [[["conv3_for_downsample2.cv3.0.conv", 0, 0, {}]]]}, {"name": "si_lu_82", "class_name": "SiLU", "config": {"name": "si_lu_82", "trainable": true}, "inbound_nodes": [[["conv3_for_downsample2.cv3.0.bn", 0, 0, {}]]]}, {"name": "conv3_for_downsample2.cv3.1.conv", "class_name": "Conv2D", "config": {"name": "conv3_for_downsample2.cv3.1.conv", "trainable": true, "filters": 256, "kernel_size": [3, 3], "strides": [1, 1], "padding": "same", "data_format": "channels_last", "dilation_rate": [1, 1], "activation": "linear", "use_bias": false, "kernel_initializer": {"class_name": "RandomNormal", "config": {"mean": 0.0, "stddev": 0.02, "seed": null}}, "bias_initializer": {"class_name": "Zeros", "config": {}}, "kernel_regularizer": null, "bias_regularizer": null, "activity_regularizer": null, "kernel_constraint": null, "bias_constraint": null}, "inbound_nodes": [[["si_lu_82", 0, 0, {}]]]}, {"name": "conv3_for_downsample2.cv3.1.bn", "class_name": "BatchNormalization", "config": {"name": "conv3_for_downsample2.cv3.1.bn", "trainable": true, "axis": -1, "momentum": 0.97, "epsilon": 0.001, "center": true, "scale": true, "beta_initializer": {"class_name": "Zeros", "config": {}}, "gamma_initializer": {"class_name": "Ones", "config": {}}, "moving_mean_initializer": {"class_name": "Zeros", "config": {}}, "moving_variance_initializer": {"class_name": "Ones", "config": {}}, "beta_regularizer": null, "gamma_regularizer": null, "beta_constraint": null, "gamma_constraint": null}, "inbound_nodes": [[["conv3_for_downsample2.cv3.1.conv", 0, 0, {}]]]}, {"name": "si_lu_83", "class_name": "SiLU", "config": {"name": "si_lu_83", "trainable": true}, "inbound_nodes": [[["conv3_for_downsample2.cv3.1.bn", 0, 0, {}]]]}, {"name": "conv3_for_downsample2.cv3.2.conv", "class_name": "Conv2D", "config": {"name": "conv3_for_downsample2.cv3.2.conv", "trainable": true, "filters": 256, "kernel_size": [3, 3], "strides": [1, 1], "padding": "same", "data_format": "channels_last", "dilation_rate": [1, 1], "activation": "linear", "use_bias": false, "kernel_initializer": {"class_name": "RandomNormal", "config": {"mean": 0.0, "stddev": 0.02, "seed": null}}, "bias_initializer": {"class_name": "Zeros", "config": {}}, "kernel_regularizer": null, "bias_regularizer": null, "activity_regularizer": null, "kernel_constraint": null, "bias_constraint": null}, "inbound_nodes": [[["si_lu_83", 0, 0, {}]]]}, {"name": "conv3_for_downsample2.cv3.2.bn", "class_name": "BatchNormalization", "config": {"name": "conv3_for_downsample2.cv3.2.bn", "trainable": true, "axis": -1, "momentum": 0.97, "epsilon": 0.001, "center": true, "scale": true, "beta_initializer": {"class_name": "Zeros", "config": {}}, "gamma_initializer": {"class_name": "Ones", "config": {}}, "moving_mean_initializer": {"class_name": "Zeros", "config": {}}, "moving_variance_initializer": {"class_name": "Ones", "config": {}}, "beta_regularizer": null, "gamma_regularizer": null, "beta_constraint": null, "gamma_constraint": null}, "inbound_nodes": [[["conv3_for_downsample2.cv3.2.conv", 0, 0, {}]]]}, {"name": "si_lu_84", "class_name": "SiLU", "config": {"name": "si_lu_84", "trainable": true}, "inbound_nodes": [[["conv3_for_downsample2.cv3.2.bn", 0, 0, {}]]]}, {"name": "conv3_for_downsample2.cv3.3.conv", "class_name": "Conv2D", "config": {"name": "conv3_for_downsample2.cv3.3.conv", "trainable": true, "filters": 256, "kernel_size": [3, 3], "strides": [1, 1], "padding": "same", "data_format": "channels_last", "dilation_rate": [1, 1], "activation": "linear", "use_bias": false, "kernel_initializer": {"class_name": "RandomNormal", "config": {"mean": 0.0, "stddev": 0.02, "seed": null}}, "bias_initializer": {"class_name": "Zeros", "config": {}}, "kernel_regularizer": null, "bias_regularizer": null, "activity_regularizer": null, "kernel_constraint": null, "bias_constraint": null}, "inbound_nodes": [[["si_lu_84", 0, 0, {}]]]}, {"name": "conv3_for_downsample2.cv1.conv", "class_name": "Conv2D", "config": {"name": "conv3_for_downsample2.cv1.conv", "trainable": true, "filters": 512, "kernel_size": [1, 1], "strides": [1, 1], "padding": "same", "data_format": "channels_last", "dilation_rate": [1, 1], "activation": "linear", "use_bias": false, "kernel_initializer": {"class_name": "RandomNormal", "config": {"mean": 0.0, "stddev": 0.02, "seed": null}}, "bias_initializer": {"class_name": "Zeros", "config": {}}, "kernel_regularizer": null, "bias_regularizer": null, "activity_regularizer": null, "kernel_constraint": null, "bias_constraint": null}, "inbound_nodes": [[["concatenate_18", 0, 0, {}]]]}, {"name": "conv3_for_downsample2.cv3.3.bn", "class_name": "BatchNormalization", "config": {"name": "conv3_for_downsample2.cv3.3.bn", "trainable": true, "axis": -1, "momentum": 0.97, "epsilon": 0.001, "center": true, "scale": true, "beta_initializer": {"class_name": "Zeros", "config": {}}, "gamma_initializer": {"class_name": "Ones", "config": {}}, "moving_mean_initializer": {"class_name": "Zeros", "config": {}}, "moving_variance_initializer": {"class_name": "Ones", "config": {}}, "beta_regularizer": null, "gamma_regularizer": null, "beta_constraint": null, "gamma_constraint": null}, "inbound_nodes": [[["conv3_for_downsample2.cv3.3.conv", 0, 0, {}]]]}, {"name": "conv3_for_downsample2.cv1.bn", "class_name": "BatchNormalization", "config": {"name": "conv3_for_downsample2.cv1.bn", "trainable": true, "axis": -1, "momentum": 0.97, "epsilon": 0.001, "center": true, "scale": true, "beta_initializer": {"class_name": "Zeros", "config": {}}, "gamma_initializer": {"class_name": "Ones", "config": {}}, "moving_mean_initializer": {"class_name": "Zeros", "config": {}}, "moving_variance_initializer": {"class_name": "Ones", "config": {}}, "beta_regularizer": null, "gamma_regularizer": null, "beta_constraint": null, "gamma_constraint": null}, "inbound_nodes": [[["conv3_for_downsample2.cv1.conv", 0, 0, {}]]]}, {"name": "si_lu_85", "class_name": "SiLU", "config": {"name": "si_lu_85", "trainable": true}, "inbound_nodes": [[["conv3_for_downsample2.cv3.3.bn", 0, 0, {}]]]}, {"name": "si_lu_80", "class_name": "SiLU", "config": {"name": "si_lu_80", "trainable": true}, "inbound_nodes": [[["conv3_for_downsample2.cv1.bn", 0, 0, {}]]]}, {"name": "concatenate_19", "class_name": "Concatenate", "config": {"name": "concatenate_19", "trainable": true, "axis": -1}, "inbound_nodes": [[["si_lu_85", 0, 0, {}], ["si_lu_84", 0, 0, {}], ["si_lu_83", 0, 0, {}], ["si_lu_82", 0, 0, {}], ["si_lu_81", 0, 0, {}], ["si_lu_80", 0, 0, {}]]]}, {"name": "conv3_for_downsample2.cv4.conv", "class_name": "Conv2D", "config": {"name": "conv3_for_downsample2.cv4.conv", "trainable": true, "filters": 512, "kernel_size": [1, 1], "strides": [1, 1], "padding": "same", "data_format": "channels_last", "dilation_rate": [1, 1], "activation": "linear", "use_bias": false, "kernel_initializer": {"class_name": "RandomNormal", "config": {"mean": 0.0, "stddev": 0.02, "seed": null}}, "bias_initializer": {"class_name": "Zeros", "config": {}}, "kernel_regularizer": null, "bias_regularizer": null, "activity_regularizer": null, "kernel_constraint": null, "bias_constraint": null}, "inbound_nodes": [[["concatenate_19", 0, 0, {}]]]}, {"name": "conv3_for_downsample2.cv4.bn", "class_name": "BatchNormalization", "config": {"name": "conv3_for_downsample2.cv4.bn", "trainable": true, "axis": -1, "momentum": 0.97, "epsilon": 0.001, "center": true, "scale": true, "beta_initializer": {"class_name": "Zeros", "config": {}}, "gamma_initializer": {"class_name": "Ones", "config": {}}, "moving_mean_initializer": {"class_name": "Zeros", "config": {}}, "moving_variance_initializer": {"class_name": "Ones", "config": {}}, "beta_regularizer": null, "gamma_regularizer": null, "beta_constraint": null, "gamma_constraint": null}, "inbound_nodes": [[["conv3_for_downsample2.cv4.conv", 0, 0, {}]]]}, {"name": "si_lu_86", "class_name": "SiLU", "config": {"name": "si_lu_86", "trainable": true}, "inbound_nodes": [[["conv3_for_downsample2.cv4.bn", 0, 0, {}]]]}, {"name": "rep_conv_3.rbr_dense.0", "class_name": "Conv2D", "config": {"name": "rep_conv_3.rbr_dense.0", "trainable": true, "filters": 1024, "kernel_size": [3, 3], "strides": [1, 1], "padding": "same", "data_format": "channels_last", "dilation_rate": [1, 1], "activation": "linear", "use_bias": false, "kernel_initializer": {"class_name": "VarianceScaling", "config": {"scale": 1.0, "mode": "fan_avg", "distribution": "uniform", "seed": null}}, "bias_initializer": {"class_name": "Zeros", "config": {}}, "kernel_regularizer": null, "bias_regularizer": null, "activity_regularizer": null, "kernel_constraint": null, "bias_constraint": null}, "inbound_nodes": [[["si_lu_86", 0, 0, {}]]]}, {"name": "rep_conv_3.rbr_1x1.0", "class_name": "Conv2D", "config": {"name": "rep_conv_3.rbr_1x1.0", "trainable": true, "filters": 1024, "kernel_size": [1, 1], "strides": [1, 1], "padding": "same", "data_format": "channels_last", "dilation_rate": [1, 1], "activation": "linear", "use_bias": false, "kernel_initializer": {"class_name": "VarianceScaling", "config": {"scale": 1.0, "mode": "fan_avg", "distribution": "uniform", "seed": null}}, "bias_initializer": {"class_name": "Zeros", "config": {}}, "kernel_regularizer": null, "bias_regularizer": null, "activity_regularizer": null, "kernel_constraint": null, "bias_constraint": null}, "inbound_nodes": [[["si_lu_86", 0, 0, {}]]]}, {"name": "rep_conv_2.rbr_dense.0", "class_name": "Conv2D", "config": {"name": "rep_conv_2.rbr_dense.0", "trainable": true, "filters": 512, "kernel_size": [3, 3], "strides": [1, 1], "padding": "same", "data_format": "channels_last", "dilation_rate": [1, 1], "activation": "linear", "use_bias": false, "kernel_initializer": {"class_name": "VarianceScaling", "config": {"scale": 1.0, "mode": "fan_avg", "distribution": "uniform", "seed": null}}, "bias_initializer": {"class_name": "Zeros", "config": {}}, "kernel_regularizer": null, "bias_regularizer": null, "activity_regularizer": null, "kernel_constraint": null, "bias_constraint": null}, "inbound_nodes": [[["si_lu_76", 0, 0, {}]]]}, {"name": "rep_conv_2.rbr_1x1.0", "class_name": "Conv2D", "config": {"name": "rep_conv_2.rbr_1x1.0", "trainable": true, "filters": 512, "kernel_size": [1, 1], "strides": [1, 1], "padding": "same", "data_format": "channels_last", "dilation_rate": [1, 1], "activation": "linear", "use_bias": false, "kernel_initializer": {"class_name": "VarianceScaling", "config": {"scale": 1.0, "mode": "fan_avg", "distribution": "uniform", "seed": null}}, "bias_initializer": {"class_name": "Zeros", "config": {}}, "kernel_regularizer": null, "bias_regularizer": null, "activity_regularizer": null, "kernel_constraint": null, "bias_constraint": null}, "inbound_nodes": [[["si_lu_76", 0, 0, {}]]]}, {"name": "rep_conv_1.rbr_dense.0", "class_name": "Conv2D", "config": {"name": "rep_conv_1.rbr_dense.0", "trainable": true, "filters": 256, "kernel_size": [3, 3], "strides": [1, 1], "padding": "same", "data_format": "channels_last", "dilation_rate": [1, 1], "activation": "linear", "use_bias": false, "kernel_initializer": {"class_name": "VarianceScaling", "config": {"scale": 1.0, "mode": "fan_avg", "distribution": "uniform", "seed": null}}, "bias_initializer": {"class_name": "Zeros", "config": {}}, "kernel_regularizer": null, "bias_regularizer": null, "activity_regularizer": null, "kernel_constraint": null, "bias_constraint": null}, "inbound_nodes": [[["si_lu_66", 0, 0, {}]]]}, {"name": "rep_conv_1.rbr_1x1.0", "class_name": "Conv2D", "config": {"name": "rep_conv_1.rbr_1x1.0", "trainable": true, "filters": 256, "kernel_size": [1, 1], "strides": [1, 1], "padding": "same", "data_format": "channels_last", "dilation_rate": [1, 1], "activation": "linear", "use_bias": false, "kernel_initializer": {"class_name": "VarianceScaling", "config": {"scale": 1.0, "mode": "fan_avg", "distribution": "uniform", "seed": null}}, "bias_initializer": {"class_name": "Zeros", "config": {}}, "kernel_regularizer": null, "bias_regularizer": null, "activity_regularizer": null, "kernel_constraint": null, "bias_constraint": null}, "inbound_nodes": [[["si_lu_66", 0, 0, {}]]]}, {"name": "rep_conv_3.rbr_dense.1", "class_name": "BatchNormalization", "config": {"name": "rep_conv_3.rbr_dense.1", "trainable": true, "axis": -1, "momentum": 0.97, "epsilon": 0.001, "center": true, "scale": true, "beta_initializer": {"class_name": "Zeros", "config": {}}, "gamma_initializer": {"class_name": "Ones", "config": {}}, "moving_mean_initializer": {"class_name": "Zeros", "config": {}}, "moving_variance_initializer": {"class_name": "Ones", "config": {}}, "beta_regularizer": null, "gamma_regularizer": null, "beta_constraint": null, "gamma_constraint": null}, "inbound_nodes": [[["rep_conv_3.rbr_dense.0", 0, 0, {}]]]}, {"name": "rep_conv_3.rbr_1x1.1", "class_name": "BatchNormalization", "config": {"name": "rep_conv_3.rbr_1x1.1", "trainable": true, "axis": -1, "momentum": 0.97, "epsilon": 0.001, "center": true, "scale": true, "beta_initializer": {"class_name": "Zeros", "config": {}}, "gamma_initializer": {"class_name": "Ones", "config": {}}, "moving_mean_initializer": {"class_name": "Zeros", "config": {}}, "moving_variance_initializer": {"class_name": "Ones", "config": {}}, "beta_regularizer": null, "gamma_regularizer": null, "beta_constraint": null, "gamma_constraint": null}, "inbound_nodes": [[["rep_conv_3.rbr_1x1.0", 0, 0, {}]]]}, {"name": "rep_conv_2.rbr_dense.1", "class_name": "BatchNormalization", "config": {"name": "rep_conv_2.rbr_dense.1", "trainable": true, "axis": -1, "momentum": 0.97, "epsilon": 0.001, "center": true, "scale": true, "beta_initializer": {"class_name": "Zeros", "config": {}}, "gamma_initializer": {"class_name": "Ones", "config": {}}, "moving_mean_initializer": {"class_name": "Zeros", "config": {}}, "moving_variance_initializer": {"class_name": "Ones", "config": {}}, "beta_regularizer": null, "gamma_regularizer": null, "beta_constraint": null, "gamma_constraint": null}, "inbound_nodes": [[["rep_conv_2.rbr_dense.0", 0, 0, {}]]]}, {"name": "rep_conv_2.rbr_1x1.1", "class_name": "BatchNormalization", "config": {"name": "rep_conv_2.rbr_1x1.1", "trainable": true, "axis": -1, "momentum": 0.97, "epsilon": 0.001, "center": true, "scale": true, "beta_initializer": {"class_name": "Zeros", "config": {}}, "gamma_initializer": {"class_name": "Ones", "config": {}}, "moving_mean_initializer": {"class_name": "Zeros", "config": {}}, "moving_variance_initializer": {"class_name": "Ones", "config": {}}, "beta_regularizer": null, "gamma_regularizer": null, "beta_constraint": null, "gamma_constraint": null}, "inbound_nodes": [[["rep_conv_2.rbr_1x1.0", 0, 0, {}]]]}, {"name": "rep_conv_1.rbr_dense.1", "class_name": "BatchNormalization", "config": {"name": "rep_conv_1.rbr_dense.1", "trainable": true, "axis": -1, "momentum": 0.97, "epsilon": 0.001, "center": true, "scale": true, "beta_initializer": {"class_name": "Zeros", "config": {}}, "gamma_initializer": {"class_name": "Ones", "config": {}}, "moving_mean_initializer": {"class_name": "Zeros", "config": {}}, "moving_variance_initializer": {"class_name": "Ones", "config": {}}, "beta_regularizer": null, "gamma_regularizer": null, "beta_constraint": null, "gamma_constraint": null}, "inbound_nodes": [[["rep_conv_1.rbr_dense.0", 0, 0, {}]]]}, {"name": "rep_conv_1.rbr_1x1.1", "class_name": "BatchNormalization", "config": {"name": "rep_conv_1.rbr_1x1.1", "trainable": true, "axis": -1, "momentum": 0.97, "epsilon": 0.001, "center": true, "scale": true, "beta_initializer": {"class_name": "Zeros", "config": {}}, "gamma_initializer": {"class_name": "Ones", "config": {}}, "moving_mean_initializer": {"class_name": "Zeros", "config": {}}, "moving_variance_initializer": {"class_name": "Ones", "config": {}}, "beta_regularizer": null, "gamma_regularizer": null, "beta_constraint": null, "gamma_constraint": null}, "inbound_nodes": [[["rep_conv_1.rbr_1x1.0", 0, 0, {}]]]}, {"name": "add_3", "class_name": "Add", "config": {"name": "add_3", "trainable": true}, "inbound_nodes": [[["rep_conv_3.rbr_dense.1", 0, 0, {}], ["rep_conv_3.rbr_1x1.1", 0, 0, {}]]]}, {"name": "add_2", "class_name": "Add", "config": {"name": "add_2", "trainable": true}, "inbound_nodes": [[["rep_conv_2.rbr_dense.1", 0, 0, {}], ["rep_conv_2.rbr_1x1.1", 0, 0, {}]]]}, {"name": "add_1", "class_name": "Add", "config": {"name": "add_1", "trainable": true}, "inbound_nodes": [[["rep_conv_1.rbr_dense.1", 0, 0, {}], ["rep_conv_1.rbr_1x1.1", 0, 0, {}]]]}, {"name": "si_lu_89", "class_name": "SiLU", "config": {"name": "si_lu_89", "trainable": true}, "inbound_nodes": [[["add_3", 0, 0, {}]]]}, {"name": "si_lu_88", "class_name": "SiLU", "config": {"name": "si_lu_88", "trainable": true}, "inbound_nodes": [[["add_2", 0, 0, {}]]]}, {"name": "si_lu_87", "class_name": "SiLU", "config": {"name": "si_lu_87", "trainable": true}, "inbound_nodes": [[["add_1", 0, 0, {}]]]}, {"name": "yolo_head_P5", "class_name": "Conv2D", "config": {"name": "yolo_head_P5", "trainable": true, "filters": 51, "kernel_size": [1, 1], "strides": [1, 1], "padding": "same", "data_format": "channels_last", "dilation_rate": [1, 1], "activation": "linear", "use_bias": true, "kernel_initializer": {"class_name": "RandomNormal", "config": {"mean": 0.0, "stddev": 0.02, "seed": null}}, "bias_initializer": {"class_name": "Zeros", "config": {}}, "kernel_regularizer": null, "bias_regularizer": null, "activity_regularizer": null, "kernel_constraint": null, "bias_constraint": null}, "inbound_nodes": [[["si_lu_89", 0, 0, {}]]]}, {"name": "yolo_head_P4", "class_name": "Conv2D", "config": {"name": "yolo_head_P4", "trainable": true, "filters": 51, "kernel_size": [1, 1], "strides": [1, 1], "padding": "same", "data_format": "channels_last", "dilation_rate": [1, 1], "activation": "linear", "use_bias": true, "kernel_initializer": {"class_name": "RandomNormal", "config": {"mean": 0.0, "stddev": 0.02, "seed": null}}, "bias_initializer": {"class_name": "Zeros", "config": {}}, "kernel_regularizer": null, "bias_regularizer": null, "activity_regularizer": null, "kernel_constraint": null, "bias_constraint": null}, "inbound_nodes": [[["si_lu_88", 0, 0, {}]]]}, {"name": "yolo_head_P3", "class_name": "Conv2D", "config": {"name": "yolo_head_P3", "trainable": true, "filters": 51, "kernel_size": [1, 1], "strides": [1, 1], "padding": "same", "data_format": "channels_last", "dilation_rate": [1, 1], "activation": "linear", "use_bias": true, "kernel_initializer": {"class_name": "RandomNormal", "config": {"mean": 0.0, "stddev": 0.02, "seed": null}}, "bias_initializer": {"class_name": "Zeros", "config": {}}, "kernel_regularizer": null, "bias_regularizer": null, "activity_regularizer": null, "kernel_constraint": null, "bias_constraint": null}, "inbound_nodes": [[["si_lu_87", 0, 0, {}]]]}, {"name": "input_2", "class_name": "InputLayer", "config": {"batch_input_shape": [null, 20, 20, 3, 2], "dtype": "float32", "sparse": false, "name": "input_2"}, "inbound_nodes": []}, {"name": "input_3", "class_name": "InputLayer", "config": {"batch_input_shape": [null, 40, 40, 3, 2], "dtype": "float32", "sparse": false, "name": "input_3"}, "inbound_nodes": []}, {"name": "input_4", "class_name": "InputLayer", "config": {"batch_input_shape": [null, 80, 80, 3, 2], "dtype": "float32", "sparse": false, "name": "input_4"}, "inbound_nodes": []}, {"name": "input_5", "class_name": "InputLayer", "config": {"batch_input_shape": [null, null, 5], "dtype": "float32", "sparse": false, "name": "input_5"}, "inbound_nodes": []}, {"name": "yolo_loss", "class_name": "Lambda", "config": {"name": "yolo_loss", "trainable": true, "function": ["4woAAAAAAAAAHQAAAA8AAAADAAAAc+YCAAB0AHwDgwF9CnwAZA4ZAIkHfAB8CmQPhQIZAH0LfABk\nAHwKhQIZAH0MdAFqAnwBdAFqA3wLZAIZAIMBgwJ9AWQCfQ1nAIkNZwCJCGcAiQVnAH0OkAF4OnQE\nfAqDAUQAkAFdLH0PdAV8DHwPGQB8AnwDfA8ZABkAiAp8AWQDZASNBVwEfRB9EX0SfRN0AWoGfBJ8\nE2cCgwF9FHQHagh8FIMBZAIZAH0VdAdqAnwBZAEZAHwBZAIZAHwBZAEZAHwBZAIZAGcEZwFnAXQH\nagmDAn0WiA1qCnQHagt0B2oMfBR8FWQQZAVnA4MCfBYUAHQHagx8EWQGZAVkAIUCZgIZAHwVZBGI\nCmQBFwBnA4MCZwJkEoMCgwEBAIgIagp0B2oNiA1kExkAZABkAIUCZABkAIUCZAJmAxkAgwF8DxQA\ngwEBAIgFagp0B2oMfAt8DxkAZAZkAmQBhQJmAhkAfBVkFGcCgwKDAQEAfA5qCnQHagx8C3wPGQBk\nBmQBZAeFAmYCGQB8FWQVZwKDAoMBAQBxXlcAdAdqC4gNZAGDAokNdAdqC4gIZAGDAokIdAdqC4gF\nZAGDAokFdAdqC3wOZAGDAn0OiA1kAGQAhQJkAGQAhQJkAGQFhQJmAxkAiQGIDWQAZACFAmQAZACF\nAmQFZAiFAmYDGQCJC4gNZABkAIUCZABkAIUCZAhkAIUCZgMZAIkDdAdqDnQHagJ0B2oOiAdkFoMC\nZAJrBHQBagOIDYMBgwJkF4MCiQl0B2oIiA2DAWQBGQCJDmQJfRdkCX0YZAl9GWQJfRqHAIcBhwKH\nA4cEhwWHBocHhwiHCYcKhwuHDIcNhw5mD2QKZAuECH0bdAdqD4cNZgFkDGQNhAh8G2QCfBd8GnwY\nfBlnBYMDXAV9HH0XfRp9GH0ZdAdqAnQHahB8F2QBgwJ0AWoDiA2DAYMCfRd8GnwZFwB8GBcAdAdq\nAnQHagiIDYMBZAIZAHQHagmDAhsAfQ18DVMAKRhO6QEAAADpAAAAAFQpAdoJY2FsY19sb3Nz6QQA\nAAAu6QIAAADpBQAAAGcAAAAAAAAAAGMFAAAAAAAAABEAAAAKAAAAEwAAAHPuAQAAdABqAYgQiAAZ\nAHQAagKDAokFiA6IABkAZACIBYUCZABkAYUCZgIZAIkDiA6IABkAZACIBYUCZAFmAhkAiQSICIgA\nGQCJAYgSiAAZAIkGiAqIABkAiQKHEYcUhxVmA2QCZAOECH0FhwCHAYcChwyHA4cEhxGHBYcGhxRm\nCmQEZAWECH0GdABqA3QAagSIBWQGgwJ8BXwGgwNcBX0HfQh9CX0KfQt8AXwHNwB9AWQHdAV8CXQA\nagaIAXwLgwKDAhgAfQx0B2oIdAl8CogNgwKIBmQIZAmNA30NdAdqCHwIdABqBogCfAuDAmQIZAmN\nA30OeOp0CnQLiAeDAYMBRABd2n0PdABqDHQHag10AGoBdABqDnQAagSID4gAGQB8D4MCfAuDAnQA\nag+DAoMBZAeDAn0QfAJ0B2oNdABqBnwMdABqBnQAag50AGoEiA+IABkAfA+DAnwLgwJ8C4MCgwKD\nAYgJFAB8EBsANwB9AnwDdAdqEHQAagZ8DXQAagSID4gAGQB8D4MCgwKIB3wPGQAUAIMBiBMUADcA\nfQN8BHQHag10AGoGfA50AGoGdABqDnQAagSID4gAGQB8D4MCfAuDAnwLgwKDAoMBiAsUAHwQGwCI\nERsANwB9BHH+VwCIAGQHFwB8AXwCfAN8BGYFUwApCk5yBAAAAGMAAAAAAAAAAAUAAAAFAAAAEwAA\nAHOKAAAAdABqAXQAagJkAYMBdANqBIgBgwGDAn0AdABqAXQAagVkAYgAZgKDAXQDagSIAYMBgwJ9\nAXQAagF0AGoFZASDAXQDagSIAYMBgwJ9AnQAagF0AGoFiAJkA2YCgwF0A2oEiAGDAYMCfQN0AGoB\ndABqBYgCgwF0AGoGgwJ9BHwAfAF8AnwDfARmBVMAKQVOcgIAAAByBAAAAHIBAAAAKQJyAgAAAHIE\nAAAAKQfaAnRm2gRjYXN02ghjb25zdGFudNoBS9oFZHR5cGXaBXplcm9z2gRib29sKQXaCm51bV9m\nZ19pbWfaCmNsc190YXJnZXTaCnJlZ190YXJnZXTaCm9ial90YXJnZXTaB2ZnX21hc2spA9oLbnVt\nX2NsYXNzZXPaB291dHB1dHPaEXRvdGFsX251bV9hbmNob3JzqQD6QUM6XFVzZXJzXFVzZXJcRG93\nbmxvYWRzXHlvbG92Ny1rZXJhcy1tYXN0ZXJcbmV0c1x5b2xvX3RyYWluaW5nLnB52gJmMesAAABz\nDAAAAAABGAEcARgBHAEUAXooeW9sb19sb3NzLjxsb2NhbHM+Lmxvb3BfYm9keS48bG9jYWxzPi5m\nMWMAAAAAAAAAAAgAAAAJAAAAEwAAAHOwAAAAdABqAYgDiAAZAHQAagKDAn0AdAN8AIgEiAWIAYgI\niAKIBogHgwhcBX0BfQB9An0DfQR0AGoBdABqBIgEdABqBXwDZAJkAWcCgwKDAnQGageICYMBgwJ9\nBXQAagF0AGoIdABqAXwBdABqCYMCiAaDAnQAagp8AmQDgwIUAHQGageICYMBgwJ9BnQAagF0AGoK\nfABkBIMCdAZqB4gJgwGDAn0HfAR8BnwFfAd8AGYFUwApBU5yAQAAAOn/////chkAAAByGQAAACkL\ncgcAAAByCAAAAHINAAAA2g9nZXRfYXNzaWdubWVudHPaCWdhdGhlcl9uZNoHcmVzaGFwZXIKAAAA\ncgsAAADaB29uZV9ob3TaBWludDMy2gtleHBhbmRfZGltcykIchIAAADaEmd0X21hdGNoZWRfY2xh\nc3Nlc9oXcHJlZF9pb3VzX3RoaXNfbWF0Y2hpbmfaD21hdGNoZWRfZ3RfaW5kc3IOAAAAchAAAABy\nDwAAAHIRAAAAKQraAWLaFmJib3hlc19wcmVkc19wZXJfaW1hZ2XaE2Nsc19wcmVkc19wZXJfaW1h\nZ2XaCGZnX21hc2tz2hNndF9iYm94ZXNfcGVyX2ltYWdl2gpndF9jbGFzc2VzchMAAADaBm51bV9n\ndNoTb2JqX3ByZWRzX3Blcl9pbWFnZXIUAAAAchYAAAByFwAAANoCZjLyAAAAcw4AAAAAARIBAgEe\nAiYBMAEaAXooeW9sb19sb3NzLjxsb2NhbHM+Lmxvb3BfYm9keS48bG9jYWxzPi5mMnICAAAAcgEA\nAABUKQHaC2Zyb21fbG9naXRzKRFyBwAAAHIIAAAAch4AAADaBGNvbmTaBWVxdWFs2ghib3hfY2lv\nddoMYm9vbGVhbl9tYXNrcgoAAADaE2JpbmFyeV9jcm9zc2VudHJvcHnaDl9zbW9vdGhfbGFiZWxz\n2gVyYW5nZdoDbGVu2gdtYXhpbXVt2gNzdW3aC2xvZ2ljYWxfYW5k2gdmbG9hdDMy2gRtZWFuKRFy\nIwAAANoGbnVtX2Zn2ghsb3NzX2lvddoIbG9zc19vYmraCGxvc3NfY2xzchgAAAByKwAAAHIOAAAA\ncg8AAAByEAAAAHIRAAAAchIAAABaCV9sb3NzX2lvdVoJX2xvc3Nfb2JqWglfbG9zc19jbHPaBWxh\neWVy2gdudW1fcG9zKQ/aB2JhbGFuY2XaCmJib3hfcHJlZHPaCWJveF9yYXRpb9oJY2xzX3ByZWRz\n2gljbHNfcmF0aW9yJgAAANoPbGFiZWxfc21vb3RoaW5n2gZsYWJlbHPaCGxheWVyX2lk2gZubGFi\nZWxyEwAAANoJb2JqX3ByZWRz2glvYmpfcmF0aW9yFAAAAHIVAAAAKQdyIwAAAHIkAAAAciUAAABy\nJwAAAHIoAAAAcikAAAByKgAAAHIXAAAA2glsb29wX2JvZHnbAAAAcyYAAAAAAhIIGAEUAQgBCAEI\nAhAHHgogAQgDFgEWARgBEgEwAjoBLgFCAXoceW9sb19sb3NzLjxsb2NhbHM+Lmxvb3BfYm9keWMB\nAAAAAAAAAAIAAAAEAAAAFwAAAHMcAAAAfAB0AGoBdABqAogAgwFkARkAdABqA4MCawBTACkCTnIC\nAAAAKQRyBwAAAHIIAAAA2gVzaGFwZXIeAAAAKQJyIwAAANoEYXJncykBchQAAAByFgAAAHIXAAAA\n2gg8bGFtYmRhPg0BAADzAAAAAHobeW9sb19sb3NzLjxsb2NhbHM+LjxsYW1iZGE+chkAAAByGQAA\nAHIZAAAAchkAAAByGQAAAHIZAAAAchkAAAByGQAAAHIZAAAAchkAAAApEXI0AAAAcgoAAAByCAAA\nAHILAAAAcjMAAADaFmdldF9hbmNob3JzX2FuZF9kZWNvZGXaC2NvbmNhdGVuYXRlcgcAAAByTAAA\nAHI4AAAA2gZhcHBlbmTaBmNvbmNhdHIcAAAA2glvbmVzX2xpa2XaCnJlZHVjZV9zdW3aCndoaWxl\nX2xvb3ByNQAAACkdck0AAADaC2lucHV0X3NoYXBl2gdhbmNob3Jz2gxhbmNob3JzX21hc2tyEwAA\nAHJAAAAAckUAAAByQgAAAHJKAAAAckQAAADaCm51bV9sYXllcnPaBnlfdHJ1ZVoMeW9sb19vdXRw\ndXRz2gRsb3NzWhdpc19pbl9ib3hlc19hbmRfY2VudGVyc9oBbNoEZ3JpZFoIcmF3X3ByZWRaB3By\nZWRfeHlaB3ByZWRfd2haCHByZWRfYm942gFt2gVzY2FsZXI6AAAAcjwAAAByPQAAAHI7AAAAcksA\nAADaAV9yFgAAACkPckAAAAByQQAAAHJCAAAAckMAAAByRAAAAHImAAAAckUAAAByRgAAAHJHAAAA\nckgAAAByEwAAAHJJAAAAckoAAAByFAAAAHIVAAAAchcAAADaCXlvbG9fbG9zc34AAABzTAAAAAAM\nCAwIAQwBDAUWAgQBBAEEAQQBBAUSCQgBHgYOAg4BKgFGASoBJgEqAgwBDAEMAQwHGgEaARoHJgEO\nAgQBBAEEAQQBKDIqAhoBJAI=\n", [[0.4, 1.0, 4], 0.01, 0.05, 1, 0.5], null], "function_type": "lambda", "output_shape": [1], "output_shape_type": "raw", "arguments": {"input_shape": [640, 640], "anchors": {"type": "ndarray", "value": [[… "anchors_mask": [[6, 7, 8], [3, 4, 5], [0, 1, 2]], "num_classes": 12, "label_smoothing": 0, "balance": [0.4, 1.0, 4], "box_ratio": 0.05, "obj_ratio": 1.0, "cls_ratio": 0.075}}, "inbound_nodes": [[["yolo_head_P5", 0, 0, {}], ["yolo_head_P4", 0, 0, {}], ["yolo_head_P3", 0, 0, {}], ["input_2", 0, 0, {}], ["input_3", 0, 0, {}], ["input_4", 0, 0, {}], ["input_5", 0, 0, {}]]]}], "input_layers": [["input_1", 0, 0], ["input_2", 0, 0], ["input_3", 0, 0], ["input_4", 0, 0], ["input_5", 0, 0]], "output_layers": [["yolo_loss", 0, 0]]}}, "training_config": {"optimizer_config": {"class_name": "SGD", "config": {"lr": 4.999999873689376e-06, "momentum": 0.9369999766349792, "decay": 0.0, "nesterov": true}}, "loss": {"yolo_loss": "<lambda>"}, "metrics": [], "sample_weight_mode": null, "loss_weights": null}}, "weightsManifest": [{"paths": ["group1-shard1of36.bin", "group1-shard2of36.bin", "group1-shard3of36.bin", "group1-shard4of36.bin", "group1-shard5of36.bin", "group1-shard6of36.bin", "group1-shard7of36.bin", "group1-shard8of36.bin", "group1-shard9of36.bin", "group1-shard10of36.bin", "group1-shard11of36.bin", "group1-shard12of36.bin", "group1-shard13of36.bin", "group1-shard14of36.bin", "group1-shard15of36.bin", "group1-shard16of36.bin", "group1-shard17of36.bin", "group1-shard18of36.bin", "group1-shard19of36.bin", "group1-shard20of36.bin", "group1-shard21of36.bin", "group1-shard22of36.bin", "group1-shard23of36.bin", "group1-shard24of36.bin", "group1-shard25of36.bin", "group1-shard26of36.bin", "group1-shard27of36.bin", "group1-shard28of36.bin", "group1-shard29of36.bin", "group1-shard30of36.bin", "group1-shard31of36.bin", "group1-shard32of36.bin", "group1-shard33of36.bin", "group1-shard34of36.bin", "group1-shard35of36.bin", "group1-shard36of36.bin"], "weights": [{"name": "backbone.dark2.0.bn/gamma", "shape": [128], "dtype": "float32"}, {"name": "backbone.dark2.0.bn/beta", "shape": [128], "dtype": "float32"}, {"name": "backbone.dark2.0.bn/moving_mean", "shape": [128], "dtype": "float32"}, {"name": "backbone.dark2.0.bn/moving_variance", "shape": [128], "dtype": "float32"}, {"name": "backbone.dark2.0.conv/kernel", "shape": [3, 3, 64, 128], "dtype": "float32"}, {"name": "backbone.dark2.1.cv1.bn/gamma", "shape": [64], "dtype": "float32"}, {"name": "backbone.dark2.1.cv1.bn/beta", "shape": [64], "dtype": "float32"}, {"name": "backbone.dark2.1.cv1.bn/moving_mean", "shape": [64], "dtype": "float32"}, {"name": "backbone.dark2.1.cv1.bn/moving_variance", "shape": [64], "dtype": "float32"}, {"name": "backbone.dark2.1.cv1.conv/kernel", "shape": [1, 1, 128, 64], "dtype": "float32"}, {"name": "backbone.dark2.1.cv2.bn/gamma", "shape": [64], "dtype": "float32"}, {"name": "backbone.dark2.1.cv2.bn/beta", "shape": [64], "dtype": "float32"}, {"name": "backbone.dark2.1.cv2.bn/moving_mean", "shape": [64], "dtype": "float32"}, {"name": "backbone.dark2.1.cv2.bn/moving_variance", "shape": [64], "dtype": "float32"}, {"name": "backbone.dark2.1.cv2.conv/kernel", "shape": [1, 1, 128, 64], "dtype": "float32"}, {"name": "backbone.dark2.1.cv3.0.bn/gamma", "shape": [64], "dtype": "float32"}, {"name": "backbone.dark2.1.cv3.0.bn/beta", "shape": [64], "dtype": "float32"}, {"name": "backbone.dark2.1.cv3.0.bn/moving_mean", "shape": [64], "dtype": "float32"}, {"name": "backbone.dark2.1.cv3.0.bn/moving_variance", "shape": [64], "dtype": "float32"}, {"name": "backbone.dark2.1.cv3.0.conv/kernel", "shape": [3, 3, 64, 64], "dtype": "float32"}, {"name": "backbone.dark2.1.cv3.1.bn/gamma", "shape": [64], "dtype": "float32"}, {"name": "backbone.dark2.1.cv3.1.bn/beta", "shape": [64], "dtype": "float32"}, {"name": "backbone.dark2.1.cv3.1.bn/moving_mean", "shape": [64], "dtype": "float32"}, {"name": "backbone.dark2.1.cv3.1.bn/moving_variance", "shape": [64], "dtype": "float32"}, {"name": "backbone.dark2.1.cv3.1.conv/kernel", "shape": [3, 3, 64, 64], "dtype": "float32"}, {"name": "backbone.dark2.1.cv3.2.bn/gamma", "shape": [64], "dtype": "float32"}, {"name": "backbone.dark2.1.cv3.2.bn/beta", "shape": [64], "dtype": "float32"}, {"name": "backbone.dark2.1.cv3.2.bn/moving_mean", "shape": [64], "dtype": "float32"}, {"name": "backbone.dark2.1.cv3.2.bn/moving_variance", "shape": [64], "dtype": "float32"}, {"name": "backbone.dark2.1.cv3.2.conv/kernel", "shape": [3, 3, 64, 64], "dtype": "float32"}, {"name": "backbone.dark2.1.cv3.3.bn/gamma", "shape": [64], "dtype": "float32"}, {"name": "backbone.dark2.1.cv3.3.bn/beta", "shape": [64], "dtype": "float32"}, {"name": "backbone.dark2.1.cv3.3.bn/moving_mean", "shape": [64], "dtype": "float32"}, {"name": "backbone.dark2.1.cv3.3.bn/moving_variance", "shape": [64], "dtype": "float32"}, {"name": "backbone.dark2.1.cv3.3.conv/kernel", "shape": [3, 3, 64, 64], "dtype": "float32"}, {"name": "backbone.dark2.1.cv4.bn/gamma", "shape": [256], "dtype": "float32"}, {"name": "backbone.dark2.1.cv4.bn/beta", "shape": [256], "dtype": "float32"}, {"name": "backbone.dark2.1.cv4.bn/moving_mean", "shape": [256], "dtype": "float32"}, {"name": "backbone.dark2.1.cv4.bn/moving_variance", "shape": [256], "dtype": "float32"}, {"name": "backbone.dark2.1.cv4.conv/kernel", "shape": [1, 1, 256, 256], "dtype": "float32"}, {"name": "backbone.dark3.0.cv1.bn/gamma", "shape": [128], "dtype": "float32"}, {"name": "backbone.dark3.0.cv1.bn/beta", "shape": [128], "dtype": "float32"}, {"name": "backbone.dark3.0.cv1.bn/moving_mean", "shape": [128], "dtype": "float32"}, {"name": "backbone.dark3.0.cv1.bn/moving_variance", "shape": [128], "dtype": "float32"}, {"name": "backbone.dark3.0.cv1.conv/kernel", "shape": [1, 1, 256, 128], "dtype": "float32"}, {"name": "backbone.dark3.0.cv2.bn/gamma", "shape": [128], "dtype": "float32"}, {"name": "backbone.dark3.0.cv2.bn/beta", "shape": [128], "dtype": "float32"}, {"name": "backbone.dark3.0.cv2.bn/moving_mean", "shape": [128], "dtype": "float32"}, {"name": "backbone.dark3.0.cv2.bn/moving_variance", "shape": [128], "dtype": "float32"}, {"name": "backbone.dark3.0.cv2.conv/kernel", "shape": [1, 1, 256, 128], "dtype": "float32"}, {"name": "backbone.dark3.0.cv3.bn/gamma", "shape": [128], "dtype": "float32"}, {"name": "backbone.dark3.0.cv3.bn/beta", "shape": [128], "dtype": "float32"}, {"name": "backbone.dark3.0.cv3.bn/moving_mean", "shape": [128], "dtype": "float32"}, {"name": "backbone.dark3.0.cv3.bn/moving_variance", "shape": [128], "dtype": "float32"}, {"name": "backbone.dark3.0.cv3.conv/kernel", "shape": [3, 3, 128, 128], "dtype": "float32"}, {"name": "backbone.dark3.1.cv1.bn/gamma", "shape": [128], "dtype": "float32"}, {"name": "backbone.dark3.1.cv1.bn/beta", "shape": [128], "dtype": "float32"}, {"name": "backbone.dark3.1.cv1.bn/moving_mean", "shape": [128], "dtype": "float32"}, {"name": "backbone.dark3.1.cv1.bn/moving_variance", "shape": [128], "dtype": "float32"}, {"name": "backbone.dark3.1.cv1.conv/kernel", "shape": [1, 1, 256, 128], "dtype": "float32"}, {"name": "backbone.dark3.1.cv2.bn/gamma", "shape": [128], "dtype": "float32"}, {"name": "backbone.dark3.1.cv2.bn/beta", "shape": [128], "dtype": "float32"}, {"name": "backbone.dark3.1.cv2.bn/moving_mean", "shape": [128], "dtype": "float32"}, {"name": "backbone.dark3.1.cv2.bn/moving_variance", "shape": [128], "dtype": "float32"}, {"name": "backbone.dark3.1.cv2.conv/kernel", "shape": [1, 1, 256, 128], "dtype": "float32"}, {"name": "backbone.dark3.1.cv3.0.bn/gamma", "shape": [128], "dtype": "float32"}, {"name": "backbone.dark3.1.cv3.0.bn/beta", "shape": [128], "dtype": "float32"}, {"name": "backbone.dark3.1.cv3.0.bn/moving_mean", "shape": [128], "dtype": "float32"}, {"name": "backbone.dark3.1.cv3.0.bn/moving_variance", "shape": [128], "dtype": "float32"}, {"name": "backbone.dark3.1.cv3.0.conv/kernel", "shape": [3, 3, 128, 128], "dtype": "float32"}, {"name": "backbone.dark3.1.cv3.1.bn/gamma", "shape": [128], "dtype": "float32"}, {"name": "backbone.dark3.1.cv3.1.bn/beta", "shape": [128], "dtype": "float32"}, {"name": "backbone.dark3.1.cv3.1.bn/moving_mean", "shape": [128], "dtype": "float32"}, {"name": "backbone.dark3.1.cv3.1.bn/moving_variance", "shape": [128], "dtype": "float32"}, {"name": "backbone.dark3.1.cv3.1.conv/kernel", "shape": [3, 3, 128, 128], "dtype": "float32"}, {"name": "backbone.dark3.1.cv3.2.bn/gamma", "shape": [128], "dtype": "float32"}, {"name": "backbone.dark3.1.cv3.2.bn/beta", "shape": [128], "dtype": "float32"}, {"name": "backbone.dark3.1.cv3.2.bn/moving_mean", "shape": [128], "dtype": "float32"}, {"name": "backbone.dark3.1.cv3.2.bn/moving_variance", "shape": [128], "dtype": "float32"}, {"name": "backbone.dark3.1.cv3.2.conv/kernel", "shape": [3, 3, 128, 128], "dtype": "float32"}, {"name": "backbone.dark3.1.cv3.3.bn/gamma", "shape": [128], "dtype": "float32"}, {"name": "backbone.dark3.1.cv3.3.bn/beta", "shape": [128], "dtype": "float32"}, {"name": "backbone.dark3.1.cv3.3.bn/moving_mean", "shape": [128], "dtype": "float32"}, {"name": "backbone.dark3.1.cv3.3.bn/moving_variance", "shape": [128], "dtype": "float32"}, {"name": "backbone.dark3.1.cv3.3.conv/kernel", "shape": [3, 3, 128, 128], "dtype": "float32"}, {"name": "backbone.dark3.1.cv4.bn/gamma", "shape": [512], "dtype": "float32"}, {"name": "backbone.dark3.1.cv4.bn/beta", "shape": [512], "dtype": "float32"}, {"name": "backbone.dark3.1.cv4.bn/moving_mean", "shape": [512], "dtype": "float32"}, {"name": "backbone.dark3.1.cv4.bn/moving_variance", "shape": [512], "dtype": "float32"}, {"name": "backbone.dark3.1.cv4.conv/kernel", "shape": [1, 1, 512, 512], "dtype": "float32"}, {"name": "backbone.dark4.0.cv1.bn/gamma", "shape": [256], "dtype": "float32"}, {"name": "backbone.dark4.0.cv1.bn/beta", "shape": [256], "dtype": "float32"}, {"name": "backbone.dark4.0.cv1.bn/moving_mean", "shape": [256], "dtype": "float32"}, {"name": "backbone.dark4.0.cv1.bn/moving_variance", "shape": [256], "dtype": "float32"}, {"name": "backbone.dark4.0.cv1.conv/kernel", "shape": [1, 1, 512, 256], "dtype": "float32"}, {"name": "backbone.dark4.0.cv2.bn/gamma", "shape": [256], "dtype": "float32"}, {"name": "backbone.dark4.0.cv2.bn/beta", "shape": [256], "dtype": "float32"}, {"name": "backbone.dark4.0.cv2.bn/moving_mean", "shape": [256], "dtype": "float32"}, {"name": "backbone.dark4.0.cv2.bn/moving_variance", "shape": [256], "dtype": "float32"}, {"name": "backbone.dark4.0.cv2.conv/kernel", "shape": [1, 1, 512, 256], "dtype": "float32"}, {"name": "backbone.dark4.0.cv3.bn/gamma", "shape": [256], "dtype": "float32"}, {"name": "backbone.dark4.0.cv3.bn/beta", "shape": [256], "dtype": "float32"}, {"name": "backbone.dark4.0.cv3.bn/moving_mean", "shape": [256], "dtype": "float32"}, {"name": "backbone.dark4.0.cv3.bn/moving_variance", "shape": [256], "dtype": "float32"}, {"name": "backbone.dark4.0.cv3.conv/kernel", "shape": [3, 3, 256, 256], "dtype": "float32"}, {"name": "backbone.dark4.1.cv1.bn/gamma", "shape": [256], "dtype": "float32"}, {"name": "backbone.dark4.1.cv1.bn/beta", "shape": [256], "dtype": "float32"}, {"name": "backbone.dark4.1.cv1.bn/moving_mean", "shape": [256], "dtype": "float32"}, {"name": "backbone.dark4.1.cv1.bn/moving_variance", "shape": [256], "dtype": "float32"}, {"name": "backbone.dark4.1.cv1.conv/kernel", "shape": [1, 1, 512, 256], "dtype": "float32"}, {"name": "backbone.dark4.1.cv2.bn/gamma", "shape": [256], "dtype": "float32"}, {"name": "backbone.dark4.1.cv2.bn/beta", "shape": [256], "dtype": "float32"}, {"name": "backbone.dark4.1.cv2.bn/moving_mean", "shape": [256], "dtype": "float32"}, {"name": "backbone.dark4.1.cv2.bn/moving_variance", "shape": [256], "dtype": "float32"}, {"name": "backbone.dark4.1.cv2.conv/kernel", "shape": [1, 1, 512, 256], "dtype": "float32"}, {"name": "backbone.dark4.1.cv3.0.bn/gamma", "shape": [256], "dtype": "float32"}, {"name": "backbone.dark4.1.cv3.0.bn/beta", "shape": [256], "dtype": "float32"}, {"name": "backbone.dark4.1.cv3.0.bn/moving_mean", "shape": [256], "dtype": "float32"}, {"name": "backbone.dark4.1.cv3.0.bn/moving_variance", "shape": [256], "dtype": "float32"}, {"name": "backbone.dark4.1.cv3.0.conv/kernel", "shape": [3, 3, 256, 256], "dtype": "float32"}, {"name": "backbone.dark4.1.cv3.1.bn/gamma", "shape": [256], "dtype": "float32"}, {"name": "backbone.dark4.1.cv3.1.bn/beta", "shape": [256], "dtype": "float32"}, {"name": "backbone.dark4.1.cv3.1.bn/moving_mean", "shape": [256], "dtype": "float32"}, {"name": "backbone.dark4.1.cv3.1.bn/moving_variance", "shape": [256], "dtype": "float32"}, {"name": "backbone.dark4.1.cv3.1.conv/kernel", "shape": [3, 3, 256, 256], "dtype": "float32"}, {"name": "backbone.dark4.1.cv3.2.bn/gamma", "shape": [256], "dtype": "float32"}, {"name": "backbone.dark4.1.cv3.2.bn/beta", "shape": [256], "dtype": "float32"}, {"name": "backbone.dark4.1.cv3.2.bn/moving_mean", "shape": [256], "dtype": "float32"}, {"name": "backbone.dark4.1.cv3.2.bn/moving_variance", "shape": [256], "dtype": "float32"}, {"name": "backbone.dark4.1.cv3.2.conv/kernel", "shape": [3, 3, 256, 256], "dtype": "float32"}, {"name": "backbone.dark4.1.cv3.3.bn/gamma", "shape": [256], "dtype": "float32"}, {"name": "backbone.dark4.1.cv3.3.bn/beta", "shape": [256], "dtype": "float32"}, {"name": "backbone.dark4.1.cv3.3.bn/moving_mean", "shape": [256], "dtype": "float32"}, {"name": "backbone.dark4.1.cv3.3.bn/moving_variance", "shape": [256], "dtype": "float32"}, {"name": "backbone.dark4.1.cv3.3.conv/kernel", "shape": [3, 3, 256, 256], "dtype": "float32"}, {"name": "backbone.dark4.1.cv4.bn/gamma", "shape": [1024], "dtype": "float32"}, {"name": "backbone.dark4.1.cv4.bn/beta", "shape": [1024], "dtype": "float32"}, {"name": "backbone.dark4.1.cv4.bn/moving_mean", "shape": [1024], "dtype": "float32"}, {"name": "backbone.dark4.1.cv4.bn/moving_variance", "shape": [1024], "dtype": "float32"}, {"name": "backbone.dark4.1.cv4.conv/kernel", "shape": [1, 1, 1024, 1024], "dtype": "float32"}, {"name": "backbone.dark5.0.cv1.bn/gamma", "shape": [512], "dtype": "float32"}, {"name": "backbone.dark5.0.cv1.bn/beta", "shape": [512], "dtype": "float32"}, {"name": "backbone.dark5.0.cv1.bn/moving_mean", "shape": [512], "dtype": "float32"}, {"name": "backbone.dark5.0.cv1.bn/moving_variance", "shape": [512], "dtype": "float32"}, {"name": "backbone.dark5.0.cv1.conv/kernel", "shape": [1, 1, 1024, 512], "dtype": "float32"}, {"name": "backbone.dark5.0.cv2.bn/gamma", "shape": [512], "dtype": "float32"}, {"name": "backbone.dark5.0.cv2.bn/beta", "shape": [512], "dtype": "float32"}, {"name": "backbone.dark5.0.cv2.bn/moving_mean", "shape": [512], "dtype": "float32"}, {"name": "backbone.dark5.0.cv2.bn/moving_variance", "shape": [512], "dtype": "float32"}, {"name": "backbone.dark5.0.cv2.conv/kernel", "shape": [1, 1, 1024, 512], "dtype": "float32"}, {"name": "backbone.dark5.0.cv3.bn/gamma", "shape": [512], "dtype": "float32"}, {"name": "backbone.dark5.0.cv3.bn/beta", "shape": [512], "dtype": "float32"}, {"name": "backbone.dark5.0.cv3.bn/moving_mean", "shape": [512], "dtype": "float32"}, {"name": "backbone.dark5.0.cv3.bn/moving_variance", "shape": [512], "dtype": "float32"}, {"name": "backbone.dark5.0.cv3.conv/kernel", "shape": [3, 3, 512, 512], "dtype": "float32"}, {"name": "backbone.dark5.1.cv1.bn/gamma", "shape": [256], "dtype": "float32"}, {"name": "backbone.dark5.1.cv1.bn/beta", "shape": [256], "dtype": "float32"}, {"name": "backbone.dark5.1.cv1.bn/moving_mean", "shape": [256], "dtype": "float32"}, {"name": "backbone.dark5.1.cv1.bn/moving_variance", "shape": [256], "dtype": "float32"}, {"name": "backbone.dark5.1.cv1.conv/kernel", "shape": [1, 1, 1024, 256], "dtype": "float32"}, {"name": "backbone.dark5.1.cv2.bn/gamma", "shape": [256], "dtype": "float32"}, {"name": "backbone.dark5.1.cv2.bn/beta", "shape": [256], "dtype": "float32"}, {"name": "backbone.dark5.1.cv2.bn/moving_mean", "shape": [256], "dtype": "float32"}, {"name": "backbone.dark5.1.cv2.bn/moving_variance", "shape": [256], "dtype": "float32"}, {"name": "backbone.dark5.1.cv2.conv/kernel", "shape": [1, 1, 1024, 256], "dtype": "float32"}, {"name": "backbone.dark5.1.cv3.0.bn/gamma", "shape": [256], "dtype": "float32"}, {"name": "backbone.dark5.1.cv3.0.bn/beta", "shape": [256], "dtype": "float32"}, {"name": "backbone.dark5.1.cv3.0.bn/moving_mean", "shape": [256], "dtype": "float32"}, {"name": "backbone.dark5.1.cv3.0.bn/moving_variance", "shape": [256], "dtype": "float32"}, {"name": "backbone.dark5.1.cv3.0.conv/kernel", "shape": [3, 3, 256, 256], "dtype": "float32"}, {"name": "backbone.dark5.1.cv3.1.bn/gamma", "shape": [256], "dtype": "float32"}, {"name": "backbone.dark5.1.cv3.1.bn/beta", "shape": [256], "dtype": "float32"}, {"name": "backbone.dark5.1.cv3.1.bn/moving_mean", "shape": [256], "dtype": "float32"}, {"name": "backbone.dark5.1.cv3.1.bn/moving_variance", "shape": [256], "dtype": "float32"}, {"name": "backbone.dark5.1.cv3.1.conv/kernel", "shape": [3, 3, 256, 256], "dtype": "float32"}, {"name": "backbone.dark5.1.cv3.2.bn/gamma", "shape": [256], "dtype": "float32"}, {"name": "backbone.dark5.1.cv3.2.bn/beta", "shape": [256], "dtype": "float32"}, {"name": "backbone.dark5.1.cv3.2.bn/moving_mean", "shape": [256], "dtype": "float32"}, {"name": "backbone.dark5.1.cv3.2.bn/moving_variance", "shape": [256], "dtype": "float32"}, {"name": "backbone.dark5.1.cv3.2.conv/kernel", "shape": [3, 3, 256, 256], "dtype": "float32"}, {"name": "backbone.dark5.1.cv3.3.bn/gamma", "shape": [256], "dtype": "float32"}, {"name": "backbone.dark5.1.cv3.3.bn/beta", "shape": [256], "dtype": "float32"}, {"name": "backbone.dark5.1.cv3.3.bn/moving_mean", "shape": [256], "dtype": "float32"}, {"name": "backbone.dark5.1.cv3.3.bn/moving_variance", "shape": [256], "dtype": "float32"}, {"name": "backbone.dark5.1.cv3.3.conv/kernel", "shape": [3, 3, 256, 256], "dtype": "float32"}, {"name": "backbone.dark5.1.cv4.bn/gamma", "shape": [1024], "dtype": "float32"}, {"name": "backbone.dark5.1.cv4.bn/beta", "shape": [1024], "dtype": "float32"}, {"name": "backbone.dark5.1.cv4.bn/moving_mean", "shape": [1024], "dtype": "float32"}, {"name": "backbone.dark5.1.cv4.bn/moving_variance", "shape": [1024], "dtype": "float32"}, {"name": "backbone.dark5.1.cv4.conv/kernel", "shape": [1, 1, 1024, 1024], "dtype": "float32"}, {"name": "backbone.stem.0.bn/gamma", "shape": [32], "dtype": "float32"}, {"name": "backbone.stem.0.bn/beta", "shape": [32], "dtype": "float32"}, {"name": "backbone.stem.0.bn/moving_mean", "shape": [32], "dtype": "float32"}, {"name": "backbone.stem.0.bn/moving_variance", "shape": [32], "dtype": "float32"}, {"name": "backbone.stem.0.conv/kernel", "shape": [3, 3, 3, 32], "dtype": "float32"}, {"name": "backbone.stem.1.bn/gamma", "shape": [64], "dtype": "float32"}, {"name": "backbone.stem.1.bn/beta", "shape": [64], "dtype": "float32"}, {"name": "backbone.stem.1.bn/moving_mean", "shape": [64], "dtype": "float32"}, {"name": "backbone.stem.1.bn/moving_variance", "shape": [64], "dtype": "float32"}, {"name": "backbone.stem.1.conv/kernel", "shape": [3, 3, 32, 64], "dtype": "float32"}, {"name": "backbone.stem.2.bn/gamma", "shape": [64], "dtype": "float32"}, {"name": "backbone.stem.2.bn/beta", "shape": [64], "dtype": "float32"}, {"name": "backbone.stem.2.bn/moving_mean", "shape": [64], "dtype": "float32"}, {"name": "backbone.stem.2.bn/moving_variance", "shape": [64], "dtype": "float32"}, {"name": "backbone.stem.2.conv/kernel", "shape": [3, 3, 64, 64], "dtype": "float32"}, {"name": "conv3_for_downsample1.cv1.bn/gamma", "shape": [256], "dtype": "float32"}, {"name": "conv3_for_downsample1.cv1.bn/beta", "shape": [256], "dtype": "float32"}, {"name": "conv3_for_downsample1.cv1.bn/moving_mean", "shape": [256], "dtype": "float32"}, {"name": "conv3_for_downsample1.cv1.bn/moving_variance", "shape": [256], "dtype": "float32"}, {"name": "conv3_for_downsample1.cv1.conv/kernel", "shape": [1, 1, 512, 256], "dtype": "float32"}, {"name": "conv3_for_downsample1.cv2.bn/gamma", "shape": [256], "dtype": "float32"}, {"name": "conv3_for_downsample1.cv2.bn/beta", "shape": [256], "dtype": "float32"}, {"name": "conv3_for_downsample1.cv2.bn/moving_mean", "shape": [256], "dtype": "float32"}, {"name": "conv3_for_downsample1.cv2.bn/moving_variance", "shape": [256], "dtype": "float32"}, {"name": "conv3_for_downsample1.cv2.conv/kernel", "shape": [1, 1, 512, 256], "dtype": "float32"}, {"name": "conv3_for_downsample1.cv3.0.bn/gamma", "shape": [128], "dtype": "float32"}, {"name": "conv3_for_downsample1.cv3.0.bn/beta", "shape": [128], "dtype": "float32"}, {"name": "conv3_for_downsample1.cv3.0.bn/moving_mean", "shape": [128], "dtype": "float32"}, {"name": "conv3_for_downsample1.cv3.0.bn/moving_variance", "shape": [128], "dtype": "float32"}, {"name": "conv3_for_downsample1.cv3.0.conv/kernel", "shape": [3, 3, 256, 128], "dtype": "float32"}, {"name": "conv3_for_downsample1.cv3.1.bn/gamma", "shape": [128], "dtype": "float32"}, {"name": "conv3_for_downsample1.cv3.1.bn/beta", "shape": [128], "dtype": "float32"}, {"name": "conv3_for_downsample1.cv3.1.bn/moving_mean", "shape": [128], "dtype": "float32"}, {"name": "conv3_for_downsample1.cv3.1.bn/moving_variance", "shape": [128], "dtype": "float32"}, {"name": "conv3_for_downsample1.cv3.1.conv/kernel", "shape": [3, 3, 128, 128], "dtype": "float32"}, {"name": "conv3_for_downsample1.cv3.2.bn/gamma", "shape": [128], "dtype": "float32"}, {"name": "conv3_for_downsample1.cv3.2.bn/beta", "shape": [128], "dtype": "float32"}, {"name": "conv3_for_downsample1.cv3.2.bn/moving_mean", "shape": [128], "dtype": "float32"}, {"name": "conv3_for_downsample1.cv3.2.bn/moving_variance", "shape": [128], "dtype": "float32"}, {"name": "conv3_for_downsample1.cv3.2.conv/kernel", "shape": [3, 3, 128, 128], "dtype": "float32"}, {"name": "conv3_for_downsample1.cv3.3.bn/gamma", "shape": [128], "dtype": "float32"}, {"name": "conv3_for_downsample1.cv3.3.bn/beta", "shape": [128], "dtype": "float32"}, {"name": "conv3_for_downsample1.cv3.3.bn/moving_mean", "shape": [128], "dtype": "float32"}, {"name": "conv3_for_downsample1.cv3.3.bn/moving_variance", "shape": [128], "dtype": "float32"}, {"name": "conv3_for_downsample1.cv3.3.conv/kernel", "shape": [3, 3, 128, 128], "dtype": "float32"}, {"name": "conv3_for_downsample1.cv4.bn/gamma", "shape": [256], "dtype": "float32"}, {"name": "conv3_for_downsample1.cv4.bn/beta", "shape": [256], "dtype": "float32"}, {"name": "conv3_for_downsample1.cv4.bn/moving_mean", "shape": [256], "dtype": "float32"}, {"name": "conv3_for_downsample1.cv4.bn/moving_variance", "shape": [256], "dtype": "float32"}, {"name": "conv3_for_downsample1.cv4.conv/kernel", "shape": [1, 1, 1024, 256], "dtype": "float32"}, {"name": "conv3_for_downsample2.cv1.bn/gamma", "shape": [512], "dtype": "float32"}, {"name": "conv3_for_downsample2.cv1.bn/beta", "shape": [512], "dtype": "float32"}, {"name": "conv3_for_downsample2.cv1.bn/moving_mean", "shape": [512], "dtype": "float32"}, {"name": "conv3_for_downsample2.cv1.bn/moving_variance", "shape": [512], "dtype": "float32"}, {"name": "conv3_for_downsample2.cv1.conv/kernel", "shape": [1, 1, 1024, 512], "dtype": "float32"}, {"name": "conv3_for_downsample2.cv2.bn/gamma", "shape": [512], "dtype": "float32"}, {"name": "conv3_for_downsample2.cv2.bn/beta", "shape": [512], "dtype": "float32"}, {"name": "conv3_for_downsample2.cv2.bn/moving_mean", "shape": [512], "dtype": "float32"}, {"name": "conv3_for_downsample2.cv2.bn/moving_variance", "shape": [512], "dtype": "float32"}, {"name": "conv3_for_downsample2.cv2.conv/kernel", "shape": [1, 1, 1024, 512], "dtype": "float32"}, {"name": "conv3_for_downsample2.cv3.0.bn/gamma", "shape": [256], "dtype": "float32"}, {"name": "conv3_for_downsample2.cv3.0.bn/beta", "shape": [256], "dtype": "float32"}, {"name": "conv3_for_downsample2.cv3.0.bn/moving_mean", "shape": [256], "dtype": "float32"}, {"name": "conv3_for_downsample2.cv3.0.bn/moving_variance", "shape": [256], "dtype": "float32"}, {"name": "conv3_for_downsample2.cv3.0.conv/kernel", "shape": [3, 3, 512, 256], "dtype": "float32"}, {"name": "conv3_for_downsample2.cv3.1.bn/gamma", "shape": [256], "dtype": "float32"}, {"name": "conv3_for_downsample2.cv3.1.bn/beta", "shape": [256], "dtype": "float32"}, {"name": "conv3_for_downsample2.cv3.1.bn/moving_mean", "shape": [256], "dtype": "float32"}, {"name": "conv3_for_downsample2.cv3.1.bn/moving_variance", "shape": [256], "dtype": "float32"}, {"name": "conv3_for_downsample2.cv3.1.conv/kernel", "shape": [3, 3, 256, 256], "dtype": "float32"}, {"name": "conv3_for_downsample2.cv3.2.bn/gamma", "shape": [256], "dtype": "float32"}, {"name": "conv3_for_downsample2.cv3.2.bn/beta", "shape": [256], "dtype": "float32"}, {"name": "conv3_for_downsample2.cv3.2.bn/moving_mean", "shape": [256], "dtype": "float32"}, {"name": "conv3_for_downsample2.cv3.2.bn/moving_variance", "shape": [256], "dtype": "float32"}, {"name": "conv3_for_downsample2.cv3.2.conv/kernel", "shape": [3, 3, 256, 256], "dtype": "float32"}, {"name": "conv3_for_downsample2.cv3.3.bn/gamma", "shape": [256], "dtype": "float32"}, {"name": "conv3_for_downsample2.cv3.3.bn/beta", "shape": [256], "dtype": "float32"}, {"name": "conv3_for_downsample2.cv3.3.bn/moving_mean", "shape": [256], "dtype": "float32"}, {"name": "conv3_for_downsample2.cv3.3.bn/moving_variance", "shape": [256], "dtype": "float32"}, {"name": "conv3_for_downsample2.cv3.3.conv/kernel", "shape": [3, 3, 256, 256], "dtype": "float32"}, {"name": "conv3_for_downsample2.cv4.bn/gamma", "shape": [512], "dtype": "float32"}, {"name": "conv3_for_downsample2.cv4.bn/beta", "shape": [512], "dtype": "float32"}, {"name": "conv3_for_downsample2.cv4.bn/moving_mean", "shape": [512], "dtype": "float32"}, {"name": "conv3_for_downsample2.cv4.bn/moving_variance", "shape": [512], "dtype": "float32"}, {"name": "conv3_for_downsample2.cv4.conv/kernel", "shape": [1, 1, 2048, 512], "dtype": "float32"}, {"name": "conv3_for_upsample1.cv1.bn/gamma", "shape": [256], "dtype": "float32"}, {"name": "conv3_for_upsample1.cv1.bn/beta", "shape": [256], "dtype": "float32"}, {"name": "conv3_for_upsample1.cv1.bn/moving_mean", "shape": [256], "dtype": "float32"}, {"name": "conv3_for_upsample1.cv1.bn/moving_variance", "shape": [256], "dtype": "float32"}, {"name": "conv3_for_upsample1.cv1.conv/kernel", "shape": [1, 1, 512, 256], "dtype": "float32"}, {"name": "conv3_for_upsample1.cv2.bn/gamma", "shape": [256], "dtype": "float32"}, {"name": "conv3_for_upsample1.cv2.bn/beta", "shape": [256], "dtype": "float32"}, {"name": "conv3_for_upsample1.cv2.bn/moving_mean", "shape": [256], "dtype": "float32"}, {"name": "conv3_for_upsample1.cv2.bn/moving_variance", "shape": [256], "dtype": "float32"}, {"name": "conv3_for_upsample1.cv2.conv/kernel", "shape": [1, 1, 512, 256], "dtype": "float32"}, {"name": "conv3_for_upsample1.cv3.0.bn/gamma", "shape": [128], "dtype": "float32"}, {"name": "conv3_for_upsample1.cv3.0.bn/beta", "shape": [128], "dtype": "float32"}, {"name": "conv3_for_upsample1.cv3.0.bn/moving_mean", "shape": [128], "dtype": "float32"}, {"name": "conv3_for_upsample1.cv3.0.bn/moving_variance", "shape": [128], "dtype": "float32"}, {"name": "conv3_for_upsample1.cv3.0.conv/kernel", "shape": [3, 3, 256, 128], "dtype": "float32"}, {"name": "conv3_for_upsample1.cv3.1.bn/gamma", "shape": [128], "dtype": "float32"}, {"name": "conv3_for_upsample1.cv3.1.bn/beta", "shape": [128], "dtype": "float32"}, {"name": "conv3_for_upsample1.cv3.1.bn/moving_mean", "shape": [128], "dtype": "float32"}, {"name": "conv3_for_upsample1.cv3.1.bn/moving_variance", "shape": [128], "dtype": "float32"}, {"name": "conv3_for_upsample1.cv3.1.conv/kernel", "shape": [3, 3, 128, 128], "dtype": "float32"}, {"name": "conv3_for_upsample1.cv3.2.bn/gamma", "shape": [128], "dtype": "float32"}, {"name": "conv3_for_upsample1.cv3.2.bn/beta", "shape": [128], "dtype": "float32"}, {"name": "conv3_for_upsample1.cv3.2.bn/moving_mean", "shape": [128], "dtype": "float32"}, {"name": "conv3_for_upsample1.cv3.2.bn/moving_variance", "shape": [128], "dtype": "float32"}, {"name": "conv3_for_upsample1.cv3.2.conv/kernel", "shape": [3, 3, 128, 128], "dtype": "float32"}, {"name": "conv3_for_upsample1.cv3.3.bn/gamma", "shape": [128], "dtype": "float32"}, {"name": "conv3_for_upsample1.cv3.3.bn/beta", "shape": [128], "dtype": "float32"}, {"name": "conv3_for_upsample1.cv3.3.bn/moving_mean", "shape": [128], "dtype": "float32"}, {"name": "conv3_for_upsample1.cv3.3.bn/moving_variance", "shape": [128], "dtype": "float32"}, {"name": "conv3_for_upsample1.cv3.3.conv/kernel", "shape": [3, 3, 128, 128], "dtype": "float32"}, {"name": "conv3_for_upsample1.cv4.bn/gamma", "shape": [256], "dtype": "float32"}, {"name": "conv3_for_upsample1.cv4.bn/beta", "shape": [256], "dtype": "float32"}, {"name": "conv3_for_upsample1.cv4.bn/moving_mean", "shape": [256], "dtype": "float32"}, {"name": "conv3_for_upsample1.cv4.bn/moving_variance", "shape": [256], "dtype": "float32"}, {"name": "conv3_for_upsample1.cv4.conv/kernel", "shape": [1, 1, 1024, 256], "dtype": "float32"}, {"name": "conv3_for_upsample2.cv1.bn/gamma", "shape": [128], "dtype": "float32"}, {"name": "conv3_for_upsample2.cv1.bn/beta", "shape": [128], "dtype": "float32"}, {"name": "conv3_for_upsample2.cv1.bn/moving_mean", "shape": [128], "dtype": "float32"}, {"name": "conv3_for_upsample2.cv1.bn/moving_variance", "shape": [128], "dtype": "float32"}, {"name": "conv3_for_upsample2.cv1.conv/kernel", "shape": [1, 1, 256, 128], "dtype": "float32"}, {"name": "conv3_for_upsample2.cv2.bn/gamma", "shape": [128], "dtype": "float32"}, {"name": "conv3_for_upsample2.cv2.bn/beta", "shape": [128], "dtype": "float32"}, {"name": "conv3_for_upsample2.cv2.bn/moving_mean", "shape": [128], "dtype": "float32"}, {"name": "conv3_for_upsample2.cv2.bn/moving_variance", "shape": [128], "dtype": "float32"}, {"name": "conv3_for_upsample2.cv2.conv/kernel", "shape": [1, 1, 256, 128], "dtype": "float32"}, {"name": "conv3_for_upsample2.cv3.0.bn/gamma", "shape": [64], "dtype": "float32"}, {"name": "conv3_for_upsample2.cv3.0.bn/beta", "shape": [64], "dtype": "float32"}, {"name": "conv3_for_upsample2.cv3.0.bn/moving_mean", "shape": [64], "dtype": "float32"}, {"name": "conv3_for_upsample2.cv3.0.bn/moving_variance", "shape": [64], "dtype": "float32"}, {"name": "conv3_for_upsample2.cv3.0.conv/kernel", "shape": [3, 3, 128, 64], "dtype": "float32"}, {"name": "conv3_for_upsample2.cv3.1.bn/gamma", "shape": [64], "dtype": "float32"}, {"name": "conv3_for_upsample2.cv3.1.bn/beta", "shape": [64], "dtype": "float32"}, {"name": "conv3_for_upsample2.cv3.1.bn/moving_mean", "shape": [64], "dtype": "float32"}, {"name": "conv3_for_upsample2.cv3.1.bn/moving_variance", "shape": [64], "dtype": "float32"}, {"name": "conv3_for_upsample2.cv3.1.conv/kernel", "shape": [3, 3, 64, 64], "dtype": "float32"}, {"name": "conv3_for_upsample2.cv3.2.bn/gamma", "shape": [64], "dtype": "float32"}, {"name": "conv3_for_upsample2.cv3.2.bn/beta", "shape": [64], "dtype": "float32"}, {"name": "conv3_for_upsample2.cv3.2.bn/moving_mean", "shape": [64], "dtype": "float32"}, {"name": "conv3_for_upsample2.cv3.2.bn/moving_variance", "shape": [64], "dtype": "float32"}, {"name": "conv3_for_upsample2.cv3.2.conv/kernel", "shape": [3, 3, 64, 64], "dtype": "float32"}, {"name": "conv3_for_upsample2.cv3.3.bn/gamma", "shape": [64], "dtype": "float32"}, {"name": "conv3_for_upsample2.cv3.3.bn/beta", "shape": [64], "dtype": "float32"}, {"name": "conv3_for_upsample2.cv3.3.bn/moving_mean", "shape": [64], "dtype": "float32"}, {"name": "conv3_for_upsample2.cv3.3.bn/moving_variance", "shape": [64], "dtype": "float32"}, {"name": "conv3_for_upsample2.cv3.3.conv/kernel", "shape": [3, 3, 64, 64], "dtype": "float32"}, {"name": "conv3_for_upsample2.cv4.bn/gamma", "shape": [128], "dtype": "float32"}, {"name": "conv3_for_upsample2.cv4.bn/beta", "shape": [128], "dtype": "float32"}, {"name": "conv3_for_upsample2.cv4.bn/moving_mean", "shape": [128], "dtype": "float32"}, {"name": "conv3_for_upsample2.cv4.bn/moving_variance", "shape": [128], "dtype": "float32"}, {"name": "conv3_for_upsample2.cv4.conv/kernel", "shape": [1, 1, 512, 128], "dtype": "float32"}, {"name": "conv_for_P4.bn/gamma", "shape": [128], "dtype": "float32"}, {"name": "conv_for_P4.bn/beta", "shape": [128], "dtype": "float32"}, {"name": "conv_for_P4.bn/moving_mean", "shape": [128], "dtype": "float32"}, {"name": "conv_for_P4.bn/moving_variance", "shape": [128], "dtype": "float32"}, {"name": "conv_for_P4.conv/kernel", "shape": [1, 1, 256, 128], "dtype": "float32"}, {"name": "conv_for_P5.bn/gamma", "shape": [256], "dtype": "float32"}, {"name": "conv_for_P5.bn/beta", "shape": [256], "dtype": "float32"}, {"name": "conv_for_P5.bn/moving_mean", "shape": [256], "dtype": "float32"}, {"name": "conv_for_P5.bn/moving_variance", "shape": [256], "dtype": "float32"}, {"name": "conv_for_P5.conv/kernel", "shape": [1, 1, 512, 256], "dtype": "float32"}, {"name": "conv_for_feat1.bn/gamma", "shape": [128], "dtype": "float32"}, {"name": "conv_for_feat1.bn/beta", "shape": [128], "dtype": "float32"}, {"name": "conv_for_feat1.bn/moving_mean", "shape": [128], "dtype": "float32"}, {"name": "conv_for_feat1.bn/moving_variance", "shape": [128], "dtype": "float32"}, {"name": "conv_for_feat1.conv/kernel", "shape": [1, 1, 512, 128], "dtype": "float32"}, {"name": "conv_for_feat2.bn/gamma", "shape": [256], "dtype": "float32"}, {"name": "conv_for_feat2.bn/beta", "shape": [256], "dtype": "float32"}, {"name": "conv_for_feat2.bn/moving_mean", "shape": [256], "dtype": "float32"}, {"name": "conv_for_feat2.bn/moving_variance", "shape": [256], "dtype": "float32"}, {"name": "conv_for_feat2.conv/kernel", "shape": [1, 1, 1024, 256], "dtype": "float32"}, {"name": "down_sample1.cv1.bn/gamma", "shape": [128], "dtype": "float32"}, {"name": "down_sample1.cv1.bn/beta", "shape": [128], "dtype": "float32"}, {"name": "down_sample1.cv1.bn/moving_mean", "shape": [128], "dtype": "float32"}, {"name": "down_sample1.cv1.bn/moving_variance", "shape": [128], "dtype": "float32"}, {"name": "down_sample1.cv1.conv/kernel", "shape": [1, 1, 128, 128], "dtype": "float32"}, {"name": "down_sample1.cv2.bn/gamma", "shape": [128], "dtype": "float32"}, {"name": "down_sample1.cv2.bn/beta", "shape": [128], "dtype": "float32"}, {"name": "down_sample1.cv2.bn/moving_mean", "shape": [128], "dtype": "float32"}, {"name": "down_sample1.cv2.bn/moving_variance", "shape": [128], "dtype": "float32"}, {"name": "down_sample1.cv2.conv/kernel", "shape": [1, 1, 128, 128], "dtype": "float32"}, {"name": "down_sample1.cv3.bn/gamma", "shape": [128], "dtype": "float32"}, {"name": "down_sample1.cv3.bn/beta", "shape": [128], "dtype": "float32"}, {"name": "down_sample1.cv3.bn/moving_mean", "shape": [128], "dtype": "float32"}, {"name": "down_sample1.cv3.bn/moving_variance", "shape": [128], "dtype": "float32"}, {"name": "down_sample1.cv3.conv/kernel", "shape": [3, 3, 128, 128], "dtype": "float32"}, {"name": "down_sample2.cv1.bn/gamma", "shape": [256], "dtype": "float32"}, {"name": "down_sample2.cv1.bn/beta", "shape": [256], "dtype": "float32"}, {"name": "down_sample2.cv1.bn/moving_mean", "shape": [256], "dtype": "float32"}, {"name": "down_sample2.cv1.bn/moving_variance", "shape": [256], "dtype": "float32"}, {"name": "down_sample2.cv1.conv/kernel", "shape": [1, 1, 256, 256], "dtype": "float32"}, {"name": "down_sample2.cv2.bn/gamma", "shape": [256], "dtype": "float32"}, {"name": "down_sample2.cv2.bn/beta", "shape": [256], "dtype": "float32"}, {"name": "down_sample2.cv2.bn/moving_mean", "shape": [256], "dtype": "float32"}, {"name": "down_sample2.cv2.bn/moving_variance", "shape": [256], "dtype": "float32"}, {"name": "down_sample2.cv2.conv/kernel", "shape": [1, 1, 256, 256], "dtype": "float32"}, {"name": "down_sample2.cv3.bn/gamma", "shape": [256], "dtype": "float32"}, {"name": "down_sample2.cv3.bn/beta", "shape": [256], "dtype": "float32"}, {"name": "down_sample2.cv3.bn/moving_mean", "shape": [256], "dtype": "float32"}, {"name": "down_sample2.cv3.bn/moving_variance", "shape": [256], "dtype": "float32"}, {"name": "down_sample2.cv3.conv/kernel", "shape": [3, 3, 256, 256], "dtype": "float32"}, {"name": "rep_conv_1.rbr_1x1.0/kernel", "shape": [1, 1, 128, 256], "dtype": "float32"}, {"name": "rep_conv_1.rbr_1x1.1/gamma", "shape": [256], "dtype": "float32"}, {"name": "rep_conv_1.rbr_1x1.1/beta", "shape": [256], "dtype": "float32"}, {"name": "rep_conv_1.rbr_1x1.1/moving_mean", "shape": [256], "dtype": "float32"}, {"name": "rep_conv_1.rbr_1x1.1/moving_variance", "shape": [256], "dtype": "float32"}, {"name": "rep_conv_1.rbr_dense.0/kernel", "shape": [3, 3, 128, 256], "dtype": "float32"}, {"name": "rep_conv_1.rbr_dense.1/gamma", "shape": [256], "dtype": "float32"}, {"name": "rep_conv_1.rbr_dense.1/beta", "shape": [256], "dtype": "float32"}, {"name": "rep_conv_1.rbr_dense.1/moving_mean", "shape": [256], "dtype": "float32"}, {"name": "rep_conv_1.rbr_dense.1/moving_variance", "shape": [256], "dtype": "float32"}, {"name": "rep_conv_2.rbr_1x1.0/kernel", "shape": [1, 1, 256, 512], "dtype": "float32"}, {"name": "rep_conv_2.rbr_1x1.1/gamma", "shape": [512], "dtype": "float32"}, {"name": "rep_conv_2.rbr_1x1.1/beta", "shape": [512], "dtype": "float32"}, {"name": "rep_conv_2.rbr_1x1.1/moving_mean", "shape": [512], "dtype": "float32"}, {"name": "rep_conv_2.rbr_1x1.1/moving_variance", "shape": [512], "dtype": "float32"}, {"name": "rep_conv_2.rbr_dense.0/kernel", "shape": [3, 3, 256, 512], "dtype": "float32"}, {"name": "rep_conv_2.rbr_dense.1/gamma", "shape": [512], "dtype": "float32"}, {"name": "rep_conv_2.rbr_dense.1/beta", "shape": [512], "dtype": "float32"}, {"name": "rep_conv_2.rbr_dense.1/moving_mean", "shape": [512], "dtype": "float32"}, {"name": "rep_conv_2.rbr_dense.1/moving_variance", "shape": [512], "dtype": "float32"}, {"name": "rep_conv_3.rbr_1x1.0/kernel", "shape": [1, 1, 512, 1024], "dtype": "float32"}, {"name": "rep_conv_3.rbr_1x1.1/gamma", "shape": [1024], "dtype": "float32"}, {"name": "rep_conv_3.rbr_1x1.1/beta", "shape": [1024], "dtype": "float32"}, {"name": "rep_conv_3.rbr_1x1.1/moving_mean", "shape": [1024], "dtype": "float32"}, {"name": "rep_conv_3.rbr_1x1.1/moving_variance", "shape": [1024], "dtype": "float32"}, {"name": "rep_conv_3.rbr_dense.0/kernel", "shape": [3, 3, 512, 1024], "dtype": "float32"}, {"name": "rep_conv_3.rbr_dense.1/gamma", "shape": [1024], "dtype": "float32"}, {"name": "rep_conv_3.rbr_dense.1/beta", "shape": [1024], "dtype": "float32"}, {"name": "rep_conv_3.rbr_dense.1/moving_mean", "shape": [1024], "dtype": "float32"}, {"name": "rep_conv_3.rbr_dense.1/moving_variance", "shape": [1024], "dtype": "float32"}, {"name": "sppcspc.cv1.bn/gamma", "shape": [512], "dtype": "float32"}, {"name": "sppcspc.cv1.bn/beta", "shape": [512], "dtype": "float32"}, {"name": "sppcspc.cv1.bn/moving_mean", "shape": [512], "dtype": "float32"}, {"name": "sppcspc.cv1.bn/moving_variance", "shape": [512], "dtype": "float32"}, {"name": "sppcspc.cv1.conv/kernel", "shape": [1, 1, 1024, 512], "dtype": "float32"}, {"name": "sppcspc.cv2.bn/gamma", "shape": [512], "dtype": "float32"}, {"name": "sppcspc.cv2.bn/beta", "shape": [512], "dtype": "float32"}, {"name": "sppcspc.cv2.bn/moving_mean", "shape": [512], "dtype": "float32"}, {"name": "sppcspc.cv2.bn/moving_variance", "shape": [512], "dtype": "float32"}, {"name": "sppcspc.cv2.conv/kernel", "shape": [1, 1, 1024, 512], "dtype": "float32"}, {"name": "sppcspc.cv3.bn/gamma", "shape": [512], "dtype": "float32"}, {"name": "sppcspc.cv3.bn/beta", "shape": [512], "dtype": "float32"}, {"name": "sppcspc.cv3.bn/moving_mean", "shape": [512], "dtype": "float32"}, {"name": "sppcspc.cv3.bn/moving_variance", "shape": [512], "dtype": "float32"}, {"name": "sppcspc.cv3.conv/kernel", "shape": [3, 3, 512, 512], "dtype": "float32"}, {"name": "sppcspc.cv4.bn/gamma", "shape": [512], "dtype": "float32"}, {"name": "sppcspc.cv4.bn/beta", "shape": [512], "dtype": "float32"}, {"name": "sppcspc.cv4.bn/moving_mean", "shape": [512], "dtype": "float32"}, {"name": "sppcspc.cv4.bn/moving_variance", "shape": [512], "dtype": "float32"}, {"name": "sppcspc.cv4.conv/kernel", "shape": [1, 1, 512, 512], "dtype": "float32"}, {"name": "sppcspc.cv5.bn/gamma", "shape": [512], "dtype": "float32"}, {"name": "sppcspc.cv5.bn/beta", "shape": [512], "dtype": "float32"}, {"name": "sppcspc.cv5.bn/moving_mean", "shape": [512], "dtype": "float32"}, {"name": "sppcspc.cv5.bn/moving_variance", "shape": [512], "dtype": "float32"}, {"name": "sppcspc.cv5.conv/kernel", "shape": [1, 1, 2048, 512], "dtype": "float32"}, {"name": "sppcspc.cv6.bn/gamma", "shape": [512], "dtype": "float32"}, {"name": "sppcspc.cv6.bn/beta", "shape": [512], "dtype": "float32"}, {"name": "sppcspc.cv6.bn/moving_mean", "shape": [512], "dtype": "float32"}, {"name": "sppcspc.cv6.bn/moving_variance", "shape": [512], "dtype": "float32"}, {"name": "sppcspc.cv6.conv/kernel", "shape": [3, 3, 512, 512], "dtype": "float32"}, {"name": "sppcspc.cv7.bn/gamma", "shape": [512], "dtype": "float32"}, {"name": "sppcspc.cv7.bn/beta", "shape": [512], "dtype": "float32"}, {"name": "sppcspc.cv7.bn/moving_mean", "shape": [512], "dtype": "float32"}, {"name": "sppcspc.cv7.bn/moving_variance", "shape": [512], "dtype": "float32"}, {"name": "sppcspc.cv7.conv/kernel", "shape": [1, 1, 1024, 512], "dtype": "float32"}, {"name": "yolo_head_P3/kernel", "shape": [1, 1, 256, 51], "dtype": "float32"}, {"name": "yolo_head_P3/bias", "shape": [51], "dtype": "float32"}, {"name": "yolo_head_P4/kernel", "shape": [1, 1, 512, 51], "dtype": "float32"}, {"name": "yolo_head_P4/bias", "shape": [51], "dtype": "float32"}, {"name": "yolo_head_P5/kernel", "shape": [1, 1, 1024, 51], "dtype": "float32"}, {"name": "yolo_head_P5/bias", "shape": [51], "dtype": "float32"}]}]}